Day1_Drone_Basic(PPO)/My Behavior/My Behavior-999999.onnx (onnx, 481996 bytes, 35 tensors)

network_body.observation_encoder.processors.0.conv_layers.0.weight f4 [16, 3, 8, 8]
-0.004436343 -0.044154778 0.03186731 0.0016928393 -0.03595186 -0.0743153 -0.07717426 0.015750546
0.053630937 -0.078104496 0.022621978 -0.0259092 0.053244315 0.03393457 0.025053943 0.002146528
-0.056639124 -0.0025084135 -0.024134275 0.021940403 -0.012274853 -0.0038962117 -0.059989437 -0.035691895
0.007205972 -0.09502123 -0.07516231 -0.091622174 -0.085996486 -0.09137254 -0.0685674 -0.01713175
0.026282866 0.011414798 0.016305057 -0.0034963673 -0.05510056 -0.04821461 0.012419653 -0.083903655
-0.06377014 0.047608245 -0.041318916 -0.069622025 0.0011049382 0.031155782 -0.07467923 -0.093432106
-0.078946665 -0.0411609 -0.047185753 -0.031662263 -0.004223234 -0.023022478 -0.004082468 -0.07293431
-0.09113265 -0.048419558 -0.08290355 0.045016397 -0.04700106 -0.07815481 0.019299718 0.021075767
0.05499586 0.050052345 0.030055536 -0.012020248 0.008508083 -0.022347592 -0.030529518 0.010786573
-0.006274774 -0.021634879 0.034245797 -0.022089643 0.026678462 0.017423531 -0.08036695 0.03306348
0.054312617 -0.034764502 -0.09164394 -0.04749388 0.011964595 -0.06622339 -0.07487346 0.013862609
0.04104573 -0.01718564 -0.020492243 -0.037094813 -0.042925786 0.04711815 -0.011385583 -0.01831385
0.052623324 0.01586784 -0.019860331 0.023503985 -0.06853653 -0.015509523 -0.057636384 -0.0005514199
-0.019668395 0.0069757155 -0.068010114 0.052946497 -0.05158466 0.042626083 -0.04935046 -0.0010389381
0.034581903 0.03216423 -0.014206949 -0.02526307 0.0028456687 -0.09004541 0.018445756 0.043549597
0.016093107 0.011946287 -0.026071941 -0.067906104 0.024913639 0.013629968 -0.049467918 0.036795296
0.0074949623 0.04403494 0.016297054 0.030988986 -0.03509637 -0.029006789 0.028115088 -0.010305065
-0.06539659 0.04115833 -0.03754854 0.00064069545 0.040402986 -0.03509933 -0.09471259 -0.10186952
0.0024308541 -0.07100228 -0.072099715 0.024346214 0.054609198 -0.07919478 -0.034390755 -0.015326615
-0.08640537 -0.007659917 -0.0022259094 0.011576852 -0.028968235 0.00060423167 0.0007160589 -0.0015443162
-0.03139036 -0.08300075 -0.06258096 -0.03128009 -0.08575178 -0.064719856 -0.09682916 -0.06307811
-0.08432577 0.032657333 -0.081197016 0.03406531 -0.032016683 0.032600705 -0.03887893 -0.03656648
-0.06535191 0.04789398 -0.07033762 -0.10230517 -0.036445405 0.0061102314 -0.07007267 -0.03184767
0.039169468 0.00046338007 0.0019973346 -0.1057048 0.034045715 -0.051696517 -0.022114169 0.020576926
-0.024592472 0.03572511 0.02089028 -0.0825 -0.020322619 -0.083425425 0.032684937 0.017764527
-0.03661677 0.065876245 -0.051543936 -0.066248365 0.03709081 0.04581807 -0.06931671 -0.03913795
0.023221744 0.026020823 -0.06074773 -0.050587427 -0.01452766 -0.012419284 0.047342323 -0.08577294
0.013267628 -0.027085261 -0.045521267 -0.07683888 0.0087250145 -0.03733558 -0.043752365 0.01251197
0.01520234 -0.054346673 0.03302513 -0.021391626 -0.0046664397 -0.0060178577 -0.06040674 0.057760175
0.010347179 -0.05847094 -0.079793975 0.0042385794 -0.022963205 -0.016982326 -0.022540294 -0.044779964
-0.082675114 0.03999018 -0.02585801 -0.015438198 -0.017151108 0.028961271 -0.030342234 0.04385476
0.02545961 0.034227546 -0.013386375 -0.0073515186 -0.03042597 0.050338686 0.08014769 -0.057805277
00000000: be5e 91bb a4db 34bd 4c87 023d 43e2 dd3a
00000010: 4242 13bd 9f32 98bd 8a0d 9ebd 4a07 813c
00000020: 1dac 5b3d 40f5 9fbd ba51 b93c 883f d4bc
00000030: b616 5a3d fafe 0a3d ed3d cd3c c4ac 0c3b
00000040: 6dfe 67bd 3264 24bb 3eb5 c5bc 5cbc b33c
00000050: 771c 49bc 9657 7fbb 7cb7 75bd aa31 12bd
00000060: 1320 ec3b 7e9a c2bd b2ee 99bd 68a4 bbbd
00000070: ed1e b0bd 8721 bbbd 116d 8cbd e257 8cbc
00000080: 2a4f d73c 2205 3b3c 2f92 853c 4f23 65bb
00000090: 20b1 61bd af7c 45bd cd7b 4b3c aed5 abbd
000000a0: eb99 82bd dd00 433d 063e 29bd fe95 8ebd
000000b0: 93d3 903a 693a ff3c 6df1 98bd 5559 bfbd
000000c0: caae a1bd 5598 28bd d945 41bd 4ab0 01bd
000000d0: 0e63 8abb a399 bcbc 39c6 85bb 955e 95bd
000000e0: c1a3 babd 9653 46bd 56c9 a9bd 1d63 383d
000000f0: 2f84 40bd a10f a0bd 711a 9e3c 16a7 ac3c
00000100: 5743 613d b003 4d3d 0737 f63c 93f0 44bc
00000110: 7d65 0b3c 4c12 b7bc 0a19 fabc 2bba 303c
00000120: 9f9c cdbb a13b b1bc 5245 0c3d 57f5 b4bc
00000130: ca8c da3c cbbb 8e3c 6d97 a4bd 926d 073d
00000140: e876 5e3d 3965 0ebd d1af bbbd f188 42bd
00000150: 2607 443c 21a0 87bd 4257 99bd ff1f 633c
00000160: 911f 283d e6c8 8cbc 59df a7bc bbf0 17bd
00000170: f3d2 2fbd f6fe 403d 998a 3abc ed06 96bc
00000180: 8e8b 573d 46fd 813c 22b2 a2bc 6e8b c03c
00000190: e15c 8cbd a81b 7ebc 2114 6cbd 2a8d 10ba
000001a0: 9d1f a1bc 8b94 e43b e348 8bbd 6dde 583d
000001b0: 704a 53bd b098 2e3d b523 4abd fa2c 88ba
000001c0: c1a5 0d3d a4be 033d 43c4 68bc 7ff4 cebc
000001d0: 667e 3a3b ba69 b8bd 8e1b 973c 1061 323d
000001e0: b1d5 833c 5cba 433c d394 d5bc 5b12 8bbd
000001f0: b017 cc3c 3b50 5f3c df9e 4abd aab6 163d
00000200: 4d98 f53b fb5d 343d 6681 853c 9ddc fd3c
00000210: 36c1 0fbd a59f edbc 9d51 e63c 93d6 28bc
00000220: a6ee 85bd a395 283d 7fcc 19bd 58f4 273a
00000230: 9a7d 253d 51c4 0fbd adf8 c1bd f8a0 d0bd
00000240: f74e 1f3b a569 91bd 04a9 93bd b671 c73c
00000250: e5ad 5f3d df30 a2bd 52dd 0cbd 7c1c 7bbc
00000260: 4cf5 b0bd 0b00 fbbb 90e0 11bb d6ac 3d3c
00000270: cb4e edbc 4d65 1e3a e6b5 3b3a a76a caba
00000280: 2e93 00bd 4cfc a9bd 722a 80bd 8d1f 00bd
00000290: a19e afbd d88b 84bd 5e4e c6bd 192f 81bd
000002a0: fdb2 acbd b2c3 053d 9f4a a6bd 1188 0b3d
000002b0: ed23 03bd 5188 053d 833f 1fbd bcc6 15bd
000002c0: 39d7 85bd 7a2c 443d 2c0d 90bd 5f85 d1bd
000002d0: c747 15bd 5638 c83b 4382 8fbd b472 02bd
000002e0: 2a70 203d d2f1 f239 b7e5 023b c27b d8bd
000002f0: 8573 0b3d babf 53bd c628 b5bc f190 a83c
00000300: 2776 c9bc 7e54 123d 1822 ab3c c3f5 a8bd
00000310: 9f7b a6bc f3da aabd a4e0 053d ea86 913c
00000320: 77fb 15bd 20ea 863d bc1f 53bd 39ad 87bd
00000330: 88ec 173d bbab 3b3d ebf5 8dbd 1d4f 20bd
00000340: 873b be3c 9f29 d53c 9dd2 78bd c334 4fbd
00000350: 6c05 6ebc 417a 4bbc 06ea 413d b9a9 afbd
00000360: 7760 593c e9e1 ddbc 8274 3abd b45d 9dbd
00000370: 5df3 0e3c 31ed 18bd ae35 33bd 01ff 4c3c
00000380: 3c13 793c 9e9a 5ebd 5c45 073d 7e3d afbc
00000390: efe8 98bb 7331 c5bb 0f6d 77bd ef95 6c3d
000003a0: 3787 293c 397f 6fbd 066b a3bd c8e3 8a3b
000003b0: 551d bcbc 851e 8bbc 6ca6 b8bc 326b 37bd
000003c0: 9251 a9bd becc 233d 2dd4 d3bc 7ff0 7cbc
000003d0: 7b80 8cbc 3040 ed3c 4790 f8bc 0ca1 333d
000003e0: ac90 d03c 2f32 0c3d 8752 5bbc 02e5 f0bb
000003f0: e23f f9bc f02f 4e3d 7924 a43d 3ac5 6cbd

network_body.observation_encoder.processors.0.conv_layers.0.bias f4 [16]
-0.05592178 0.0028418058 0.08008807 0.049777124 -0.081956595 -0.05782886 -0.051822644 0.010942153
-0.02827249 -0.00551199 -0.045509942 0.027088732 -0.07390864 -0.03810185 0.0606051 0.08051828
00000000: 3d0e 65bd 973d 3a3b 3705 a43d 19e3 4b3d
00000010: dcd8 a7bd f4dd 6cbd fb43 54bd b746 333c
00000020: b59b e7bc ec9d b4bb a268 3abd 30e9 dd3c
00000030: 6a5d 97bd af10 1cbd 0e3d 783d c5e6 a43d

network_body.observation_encoder.processors.0.conv_layers.2.weight f4 [32, 16, 4, 4]
-0.02350371 -0.031748425 0.0586457 0.05026355 0.07118843 0.023696862 0.0819603 0.06783345
-0.008196075 0.09681197 0.033014186 0.07695495 0.011210273 -0.009161872 -0.032023862 0.06257441
-0.052689645 -0.017900184 -0.09217986 0.00538654 0.01903351 -0.012992689 0.014667245 0.012684551
-0.06845407 -0.02321395 -0.029703526 -0.03897797 -0.09004426 -0.056476396 -0.0710807 -0.015474228
-0.06637271 -0.019558685 0.023727946 0.031861026 -0.01987875 0.07683289 0.011984225 -0.07414352
0.051383305 -0.054345902 0.07308633 -0.061902005 -0.07379411 -0.05540917 -0.09795999 -0.10345181
0.0014770072 -0.052898694 -0.0044666748 -0.032561783 0.016013585 0.057159964 0.02888052 -0.029405402
-0.031526245 0.00771097 0.018759172 0.012412123 -0.09396668 -0.016959256 -0.01518832 0.005234924
-0.0262715 -0.012020912 0.044273216 0.05784677 0.009972686 0.03837174 -0.008201889 0.031363163
0.02056225 0.013047969 0.031322006 -0.041380685 -0.030123862 -0.03125773 0.008010838 0.04911278
-0.039652515 0.016955672 0.03244262 -0.04849438 -0.03853182 0.015521546 -0.009702089 -0.03807415
0.040658448 0.035052232 0.012207445 0.003969665 0.04319538 -0.034761284 -0.019471005 0.048478965
0.010997397 0.06531113 0.07566267 0.023282891 -0.026858702 0.020879906 0.028548364 0.039686676
0.038388345 0.020597469 0.010228771 -0.024311578 0.02199484 0.025795845 -0.013248165 -0.014645216
0.05601486 0.05793223 -0.008520472 -0.008592572 0.0062581683 -0.015400029 0.062786184 0.10446356
0.031146154 0.052963085 0.049279787 0.07243127 0.08964677 0.112856045 0.070474185 -0.0393625
-0.08865208 -0.04519575 0.017520515 0.054500736 -0.041785467 -0.058951978 0.063516624 -0.058296163
0.031635445 0.0051872716 0.037821695 -0.027188411 -0.089796424 -0.030329883 0.019768558 -0.026295042
0.014232801 -0.012150397 -0.012614823 0.0255452 -0.014231091 -0.06830206 0.07118053 0.010800432
-0.0677681 -0.002326477 0.061395805 0.0036867233 -0.032204457 -0.06773375 -0.018155856 -0.09880908
0.073464565 0.09939632 -0.023638407 -0.028750831 -0.02989033 -0.06142024 -0.03968522 -0.079357855
-0.051040117 0.058086526 -0.07492322 0.045587964 -0.00733214 0.005735496 -0.0031791702 -0.05098521
-0.060876086 -0.05127723 -0.0591231 0.010332141 -0.0671652 -0.046183106 -0.007989197 -0.0143979695
-0.05015419 0.0032193577 -0.030799966 -0.018208954 -0.10259445 0.045151368 0.05591993 -0.006155444
-0.012772348 0.020149043 0.021053795 0.008450654 -0.0275284 -0.033112805 -0.020548241 0.022078592
0.038316205 0.02878676 0.048169006 0.050494142 -0.03846873 0.05197663 0.026456272 0.06451926
-0.09795135 -0.058606356 -0.116026595 0.018493371 -0.002160159 -0.015599538 -0.037416313 0.07860259
0.035438012 0.044251986 0.018998455 0.07109622 -0.09477429 -0.087512575 0.0019077074 -0.055317592
0.048382193 0.09161382 0.035909776 0.04863406 0.029164413 0.04657161 0.06108922 0.05248368
0.06405427 0.026051188 0.07504343 0.17452562 0.04433772 0.011515552 0.006127111 0.02343694
0.016655153 0.015115116 0.033735048 0.092174284 0.058188993 -0.036611486 0.027245061 -0.016179625
0.07727335 0.0005357414 -0.106609784 0.010988724 -0.05833904 -0.12302914 -0.076682076 -0.08336603
00000000: da8a c0bc a30a 02bd 7936 703d 27e1 4d3d
00000010: 3dcb 913d ec1f c23c cdda a73d 44ec 8a3d
00000020: d548 06bc 5b45 c63d e239 073d 8f9a 9d3d
00000030: 4bab 373c ad1b 16bc 742b 03bd 0327 803d
00000040: 19d1 57bd 68a3 92bc cbc8 bcbd 9381 b03b
00000050: 2aec 9b3c 4adf 54bc e24e 703c ddd2 4f3c
00000060: a631 8cbd 2f2b bebc cf54 f3bc 5da7 1fbd
00000070: 2069 b8bd cb53 67bd c292 91bd 9e87 7dbc
00000080: 6aee 87bd 8939 a0bc 1c61 c23c b580 023d
00000090: c3d8 a2bc 905a 9d3d 7c59 443c 8fd8 97bd
000000a0: 4d77 523d cf99 5ebd 49ae 953d f58c 7dbd
000000b0: 5e21 97bd baf4 62bd 3f9f c8bd 8bde d3bd
000000c0: 2398 c13a 4dac 58bd 2f5d 92bb 815f 05bd
000000d0: ec2e 833c 9120 6a3d d796 ec3c 99e3 f0bc
000000e0: aa21 01bd 4eac fc3b d6ac 993c 385c 4b3c
000000f0: 9a71 c0bd 23ee 8abc 6ed8 78bc ba89 ab3b
00000100: 5437 d7bc 5cf3 44bc d557 353d bcf0 6c3d
00000110: 7a64 233c b02b 1d3d 3761 06bc a976 003d
00000120: 2a72 a83c 26c7 553c 814b 003d cb7e 29bd
00000130: 51c6 f6bc 1b08 00bd e43f 033c 7b2a 493d
00000140: ad6a 22bd 9fe6 8a3c 8de2 043d 0ba2 46bd
00000150: 8bd3 1dbd 154e 7e3c 83f5 1ebc a4f3 1bbd
00000160: 7989 263d ee92 0f3d bc01 483c f713 823b
00000170: a4ed 303d d961 0ebd a881 9fbc e191 463d
00000180: 6d2e 343c d7c1 853d 08f5 9a3d c3bb be3c
00000190: c806 dcbc 560c ab3c 42de e93c 7f8e 223d
000001a0: 193d 1d3d 06bc a83c 9396 273c 1329 c7bc
000001b0: 862e b43c cf51 d33c d50e 59bc 7df2 6fbc
000001c0: d66f 653d 594a 6d3d 7399 0bbc dcc7 0cbc
000001d0: 5211 cd3b 6750 7cbc 0b96 803d fef0 d53d
000001e0: 3826 ff3c d2ef 583d 9ad9 493d d856 943d
000001f0: ba98 b73d 1221 e73d c554 903d 933a 21bd
00000200: 398f b5bd 2e1f 39bd 2f87 8f3c 2a3c 5f3d
00000210: 3d27 2bbd a177 71bd 0115 823d f5c7 6ebd
00000220: 2b94 013d fdf9 a93b ecea 1a3d 3bba debc
00000230: 30e7 b7bd 6076 f8bc acf1 a13c b368 d7bc
00000240: b230 693c 7512 47bc 67ae 4ebc 2b44 d13c
00000250: 8629 69bc f3e1 8bbd 19c7 913d 4cf4 303c
00000260: 00ca 8abd cf77 18bb 2b7a 7b3d f49c 713b
00000270: d2e8 03bd feb7 8abd 97bb 94bc 6a5c cabd
00000280: 9774 963d 4c90 cb3d 55a5 c1bc dd86 ebbc
00000290: 91dc f4bc ca93 7bbd f88c 22bd 5f86 a2bd
000002a0: 710f 51bd 23ec 6d3d 5871 99bd 72ba 3a3d
000002b0: 7342 f0bb d4f0 bb3b a059 50bb ded5 50bd
000002c0: 3459 79bd 1308 52bd 102b 72bd 2448 293c
000002d0: e98d 89bd 7f2a 3dbd 1fe5 02bc 76e5 6bbc
000002e0: 7b6e 4dbd dcfb 523b 3650 fcbc f22a 95bc
000002f0: 0a1d d2bd a4f0 383d 4c0c 653d 9bb3 c9bb
00000300: 1c43 51bc 9b0f a53c 0279 ac3c 9d74 0a3c
00000310: 3d83 e1bc 4ba1 07bd c954 a8bc 2ade b43c
00000320: 74f1 1c3d 36d2 eb3c dd4c 453d f2d2 4e3d
00000330: 6391 1dbd 72e5 543d d3ba d83c ac22 843d
00000340: b89a c8bd 380d 70bd 5a9f edbd 697f 973c
00000350: 7491 0dbb 3495 7fbc d941 19bd 65fa a03d
00000360: 7327 113d 9241 353d a6a2 9b3c e59a 913d
00000370: 0619 c2bd cb39 b3bd 0a0c fa3a b394 62bd
00000380: 682c 463d 07a0 bb3d 2116 133d 8234 473d
00000390: 35ea ee3c dfc1 3e3d b138 7a3d 21f9 563d
000003a0: e32e 833d 4d69 d53c 5fb0 993d d8b6 323e
000003b0: 789b 353d baab 3c3c efc5 c83b d3fe bf3c
000003c0: 6370 883c 64a5 773c c32d 0a3d dfc5 bc3d
000003d0: 9557 6e3d edf5 15bd 0931 df3c 228b 84bc
000003e0: 7d41 9e3d ff70 0c3a 3b56 dabd 0d0a 343c
000003f0: ebf4 6ebd b4f6 fbbd 7e0b 9dbd cfbb aabd

network_body.observation_encoder.processors.0.conv_layers.2.bias f4 [32]
0.039027553 -0.035329614 -0.0033545722 -0.08027217 -0.020344835 -0.060572077 -0.055969164 -0.020514177
-0.02401682 -0.045571703 -0.06384189 -0.06449218 -0.13168833 -0.018394489 -0.020599825 0.012181837
-0.04920591 -0.03489349 -0.053222205 -0.0033733086 -0.062333558 -0.014379728 -0.0474556 -0.028886916
-0.15189111 -0.11583612 -0.14601989 -0.045077015 -0.0105117615 0.014729951 0.00312318 -0.053504683
00000000: 5bdb 1f3d c9b5 10bd 62d8 5bbb bc65 a4bd
00000010: 36aa a6bc 6d1a 78bd ec3f 65bd 590d a8bc
00000020: ecbe c4bc 65a9 3abd 89bf 82bd 7a14 84bd
00000030: 4ed9 06be 0ab0 96bc f7c0 a8bc 5496 473c
00000040: 238c 49bd 7aec 0ebd 87ff 59bd ba12 5dbb
00000050: 7951 7fbd f398 6bbc ce60 42bd 41a4 ecbc
00000060: 5889 1bbe 7d3b edbd 3d86 15be ada2 38bd
00000070: 8639 2cbc e455 713c 44ae 4c3b ba27 5bbd

network_body.observation_encoder.processors.0.dense.0.weight f4 [20, 576]
-0.0075089033 0.018352132 0.042958613 0.022362765 0.067779936 0.037089072 0.07310566 0.059946064
-0.0412476 0.074902 -0.011333577 -0.05974886 -0.013217867 0.07206822 -0.0011296718 -0.045000542
-0.070389666 0.054251563 -0.02990841 0.15276137 -0.0017355882 0.08453796 -0.011978452 0.08070836
-0.033145186 -0.03270233 0.034560975 0.019262189 0.0055631213 0.050458953 0.112651646 0.04339178
-0.00274168 -0.049168054 0.059376758 -0.097296685 -0.0007960942 0.039594855 -0.0017032383 -0.060368948
-0.013162034 0.0074408255 -0.039872706 -0.0015815815 0.030283041 -0.085460424 -0.047170922 0.0019662268
0.018779527 0.09112984 0.08106997 0.07046376 -0.03910198 0.0542466 -0.016425498 0.0011020919
0.030118544 0.09715657 -0.007136985 -0.04841782 -0.022230761 0.02725164 0.0022004854 0.010413581
0.008027355 -0.04063753 0.107038416 0.028813597 -0.057317283 -0.057476353 -0.04713192 -0.11986681
0.0047469903 0.04608821 0.11557778 -0.05259566 -0.0019799878 0.07706094 0.07375474 -0.05363166
0.07392119 0.10365571 -0.046972234 0.038844507 0.14387989 -0.051942486 0.005408309 0.03038248
0.045374624 0.08779958 0.016542457 -0.006382543 -0.07261892 0.06388687 0.008751395 -0.12522165
-0.054685827 0.038438387 0.016168771 -0.07001454 0.06960779 0.07217354 -0.035290614 -0.055584278
-0.017690433 -0.011622692 0.048520308 -0.09814757 0.03536803 0.018769123 -0.08196897 0.007338083
-0.049959224 -0.19938737 -0.08386349 0.008271842 0.01724957 0.04085274 0.058131166 0.12825295
-0.050268266 0.053335965 -0.17917107 -0.06129754 -0.038121663 -0.004561239 -0.008983572 -0.05216686
-0.004326099 0.061308313 0.035735264 0.052334465 -0.02862675 -0.045058716 0.061947815 -0.0023891148
0.019103998 -0.177186 0.022850243 -0.03826963 -0.013031218 -0.012067256 0.05687134 -0.04897888
0.075543374 0.020440627 0.016699888 -0.05792843 0.015551072 0.11727885 -0.010513159 0.0079792105
-0.024998143 -0.017801883 0.029818961 -0.0004737652 0.020593628 -0.031565722 0.08337803 -0.00228102
0.04854009 0.1001363 -0.06550359 0.04136485 -0.037164208 -0.020314097 -0.049079068 -0.060033772
-0.048484545 -0.044772174 -0.10782861 -0.026002211 -0.041356627 0.06443736 -0.055013306 -0.05233656
-0.1286656 -0.063158244 0.00915561 -0.05816749 0.0088563105 -0.023809709 0.049492702 -0.027437137
0.06469765 -0.0729914 0.03145255 -0.0332467 0.014423145 0.055586476 0.011364777 -0.048002835
-0.10010059 0.08604395 -0.051630978 0.0473532 0.050090957 0.0044941655 0.0088898195 -0.09239872
0.0042402577 0.030801516 -0.014307952 -0.018025013 0.027460653 -0.026355037 -0.002011104 0.007993227
0.06939945 0.04742861 -0.038322963 -0.13057949 0.0069316057 -0.030482218 0.04685279 -0.032914918
0.019909741 0.030816643 -0.059190962 -0.05282369 0.012257652 0.028615449 0.0921064 -0.020708192
-0.00976459 -0.07028538 0.08609328 -0.051286396 0.0922789 -0.05996185 -0.00014208604 0.0861322
0.052043162 0.111682706 -0.08095514 0.096805915 -0.091483444 -0.005470597 -0.036410637 0.06337506
-0.10273944 -0.110106066 -0.081395194 -0.025743347 -0.018895919 0.062439088 -0.046252895 -0.04658331
-0.0017282004 -0.021665256 -0.051058285 -0.052697938 0.058709163 -0.005053898 0.06031346 -0.019696737
00000000: 3f0d f6bb 3657 963c 5ff5 2f3d 1e32 b73c
00000010: 35d0 8a3d b6ea 173d 6cb8 953d 018a 753d
00000020: 3ef3 28bd 3866 993d 78b0 39bc 38bb 74bd
00000030: c18f 58bc 8198 933d 7f11 94ba 7d52 38bd
00000040: 7528 90bd e336 5e3d 7b02 f5bc 7a6d 1c3e
00000050: ad7c e3ba 3d22 ad3d 4541 44bc 6d4a a53d
00000060: 3fc3 07bd e1f2 05bd cf8f 0d3d bdcb 9d3c
00000070: d84a b63b 0cae 4e3d e8b5 e63d 94bb 313d
00000080: c2ad 33bb 7164 49bd 0b35 733d 7c43 c7bd
00000090: fab0 50ba 372e 223d 323f dfba 6e45 77bd
000000a0: 92a5 57bc 2bd2 f33b 9051 23bd 124d cfba
000000b0: 2414 f83c e005 afbd 4c36 41bd d0db 003b
000000c0: 86d7 993c 48a2 ba3d 0308 a63d 4e4f 903d
000000d0: 6629 20bd af31 5e3d c48e 86bc 1174 903a
000000e0: 2abb f63c 06fa c63d 5fdd e9bb c451 46bd
000000f0: 491d b6bc d53e df3c 0536 103b b99d 2a3c
00000100: 2b85 033c 8a73 26bd f536 db3d 7e0a ec3c
00000110: 87c5 6abd 536c 6bbd 660d 41bd bb7c f5bd
00000120: a48c 9b3b fec6 3c3d 0bb4 ec3d 8c6e 57bd
00000130: afc2 01bb 20d2 9d3d ba0c 973d dfac 5bbd
00000140: fe63 973d 7249 d43d f565 40bd 6b1b 1f3d
00000150: 4055 133e a5c1 54bd 2f38 b13b aee4 f83c
00000160: beda 393d 44d0 b33d 0c84 873c a724 d1bb
00000170: 3ab9 94bd 1fd7 823d 0362 0f3c 1b3a 00be
00000180: 3ffe 5fbd 9271 1d3d 5f74 843c c863 8fbd
00000190: 878e 8e3d b9cf 933d e48c 10bd 57ac 63bd
000001a0: 87eb 90bc 1b6d 3ebc 3bbd 463d 9801 c9bd
000001b0: 11de 103d b4c1 993c 59df a7bd 4d74 f03b
000001c0: 0ba2 4cbd 342c 4cbe 9fc0 abbd 9f86 073c
000001d0: f84e 8d3c 3455 273d f21a 6e3d be54 033e
000001e0: 19e6 4dbd d076 5a3d 9f78 37be 2113 7bbd
000001f0: 7625 1cbd 7276 95bb d52f 13bc ebac 55bd
00000200: f3c1 8dbb 6d1e 7b3d 245f 123d aa5c 563d
00000210: a582 eabc 7d8f 38bd febc 7d3d b292 1cbb
00000220: fd7f 9c3c 3f70 35be 6f30 bb3c 9ec0 1cbd
00000230: e480 55bc bdb5 45bc ecf1 683d 149e 48bd
00000240: 7cb6 9a3d 1a73 a73c 34ce 883c 5d46 6dbd
00000250: ecc9 7e3c e52f f03d 633f 2cbc 3cbb 023c
00000260: e8c8 ccbc 41d5 91bc e546 f43c b063 f8b9
00000270: f8b3 a83c 0f4b 01bd 1ac2 aa3d 2a7d 15bb
00000280: f9d1 463d 4314 cd3d bf26 86bd 306e 293d
00000290: 7f39 18bd c069 a6bc 2207 49bd f9e5 75bd
000002a0: bb97 46bd 0763 37bd 3fd5 dcbd 9702 d5bc
000002b0: 9165 29bd bcf7 833d a255 61bd dc5e 56bd
000002c0: eac0 03be 1c59 81bd 6901 163c 0941 6ebd
000002d0: 0f1a 113c 940c c3bc dcb8 4a3d d9c3 e0bc
000002e0: 3480 843d 847c 95bd 64d4 003d b12d 08bd
000002f0: 0e4f 6c3c a5ae 633d 5433 3a3c 9f9e 44bd
00000300: 8a01 cdbd cf37 b03d 017b 53bd 6ef5 413d
00000310: 2d2c 4d3d cb43 933b 9ba6 113c 8a3b bdbd
00000320: dcf1 8a3b 7653 fc3c e66b 6abc 31a9 93bc
00000330: 2af5 e03c 85e6 d7bc bacc 03bb 06f6 023c
00000340: 4d21 8e3d 8144 423d 8af8 1cbd a1b6 05be
00000350: 8622 e33b d8b5 f9bc b6e8 3f3d cbd1 06bd
00000360: c119 a33c 2f73 fc3c 3972 72bd a75d 58bd
00000370: 52d4 483c f26a ea3c 48a2 bc3d 3aa4 a9bc
00000380: a9fb 1fbc c8f1 8fbd ac51 b03d af11 52bd
00000390: b8fc bc3d 8f9a 75bd eefc 14b9 1466 b03d
000003a0: 362b 553d e7b9 e43d cfcb a5bd 2e42 c63d
000003b0: ac5b bbbd b242 b3bb 5223 15bd c9ca 813d
000003c0: 0e69 d2bd 4a7f e1bd 86b2 a6bd b6e3 d2bc
000003d0: 9dcb 9abc 21c0 7f3d ad73 3dbd 24ce 3ebd
000003e0: c884 e2ba 567b b1bc 7e22 51bd cbd9 57bd
000003f0: 0579 703d 2b9b a5bb 3f0b 773d 0d5b a1bc

network_body.observation_encoder.processors.0.dense.0.bias f4 [20]
-0.069133185 -0.025321031 -0.025929278 -0.045775227 -0.027656857 -0.030200213 -0.05441759 -0.06405372
-0.023427395 -0.018147364 -0.07883032 -0.109619185 -0.032574784 -0.027307246 -0.04532401 -0.0102737285
0.0017217638 -0.04821178 -0.005716592 -0.01927758
00000000: b395 8dbd 0d6e cfbc a369 d4bc ce7e 3bbd
00000010: a290 e2bc 7066 f7bc fbe4 5ebd 992e 83bd
00000020: cfea bfbc c8a9 94bc ca71 a1bd 0680 e0bd
00000030: 236d 05bd 72b3 dfbc aba5 39bd 2453 28bc
00000040: ceac e13a b779 45bd 4052 bbbb 04ec 9dbc

network_body.observation_encoder.processors.1.conv_layers.0.weight f4 [16, 3, 8, 8]
-0.060013033 -0.12074082 0.036971208 0.017498625 -0.0024249842 -0.011484245 -0.044772115 0.0370532
-0.009891972 -0.10211886 -0.10501762 0.046754256 0.0130369915 0.024898654 -0.028466439 0.0054563773
-0.032915268 -0.0278278 -0.024210986 -0.016583921 0.05913597 -0.03866298 0.06371115 -0.031604465
-0.08495827 -0.09451615 -0.094177864 -0.02512361 -0.03220728 -0.020236533 0.09509819 0.0979348
-0.06050561 -0.082806356 -0.10683653 -0.07541164 0.06710368 -0.033720106 0.03230271 -0.04418853
-0.097893305 -0.054515168 -0.05454438 -0.05621688 0.09053585 0.055007804 -0.033707358 -0.0018205628
-0.09185908 -0.049466047 -0.048574343 -0.055596475 0.008662265 0.022855088 0.0959283 0.048750665
-0.05087168 0.013023293 -0.040336896 0.00027684474 0.0055874465 -0.021109814 0.07357973 0.11726048
-0.09132378 -0.10169375 -0.048739046 0.048747014 -0.07238167 -0.0126464935 0.049348302 -0.048417017
-0.054566942 -0.052855726 -0.10542995 -0.052810855 -0.032382786 0.011695301 -0.009794136 -0.027184337
-0.0847333 -0.09226048 0.029162811 -0.05891482 0.0055481354 0.06625721 0.057685334 0.09948697
-0.068681546 -0.03694344 0.011872328 0.06793099 0.026049402 0.042640492 0.026522463 0.04950637
-0.09974098 -0.07761749 -0.083632536 0.00260478 0.0354975 0.09058226 -0.020387642 0.01904212
-0.107578896 -0.046866175 -0.07405901 0.0075313747 -0.023488455 0.014904181 0.07465031 0.079567276
-0.089119904 -0.033975594 -0.109513104 -0.013259359 0.098415755 0.018477144 -0.014460299 0.055224676
0.010964717 0.021623855 -0.030045152 0.06392821 0.07650164 0.05359994 -0.01601006 0.009569719
-0.046847723 -0.064082526 0.008201801 -0.044354036 -0.07090101 0.009925376 -0.046794157 0.024409816
-0.06849682 -0.04625689 -0.036563586 0.036751572 -0.033088025 -0.0074685183 0.015690636 0.029500473
-0.116054 -0.04067566 -0.0029400873 -0.019680005 -0.006189006 0.07356681 -0.0127576785 0.07557392
0.014562159 -0.077081546 -0.0837211 -0.015674958 0.08890948 -0.011048034 0.00707116 0.05374193
-0.10426224 -0.057347883 -0.025324421 -0.0027322376 0.033234 0.013906396 -0.012696599 0.04010674
0.01563086 -0.039432447 -0.111880615 0.0052666855 -0.0028740845 -0.058758553 -0.017265968 0.051417295
-0.082878366 0.0038693654 -0.0017227752 -0.031328604 0.046303775 -0.03291603 0.05909451 0.049022164
-0.014650226 -0.05934549 -0.0030218274 0.028841749 -0.0071123117 0.054707583 -0.0155012 0.12385912
0.04743791 -0.11908387 -0.079081625 -0.047865693 -0.16150573 -0.018890398 -0.066746876 -0.040060174
0.013187046 -0.050384652 -0.17693284 -0.13488345 -0.054603737 -0.21220215 -0.06740067 -0.20621102
-0.10991101 0.0028179237 -0.080245 -0.07028292 -0.008218877 -0.0867904 -0.12149755 -0.074945934
0.026402695 0.006430242 0.01582096 -0.00591613 0.052055463 -0.012787983 0.020970484 -0.0259594
0.09369839 0.059650123 0.0470549 0.09222413 -0.007936024 0.04205754 0.017507812 -0.03647172
0.038747992 0.083335936 0.13474135 -0.0048834835 -0.0038217916 0.0041097826 0.041158833 -0.02180518
0.15540425 0.16458172 0.08052644 0.0870935 0.102654606 0.025995068 0.01726868 0.03380744
0.19193013 0.08413337 0.12424878 0.09282324 0.13812983 0.01561461 -0.037530106 -0.00640039
00000000: 3ad0 75bd f746 f7bd 1f6f 173d 4759 8f3c
00000010: 7cec 1ebb 6a28 3cbc f762 37bd 19c5 173d
00000020: f011 22bc b123 d1bd 7a13 d7bd 6481 3f3d
00000030: 1b99 553c 43f8 cb3c 7332 e9bc 69cb b23b
00000040: 29d2 06bd 20f7 e3bc 1e56 c6bc 01db 87bc
00000050: 8f38 723d 135d 1ebd fe7a 823d af73 01bd
00000060: 9afe adbd af91 c1bd 53e0 c0bd 07d0 cdbc
00000070: c8eb 03bd 16c7 a5bc d7c2 c23d 0a92 c83d
00000080: bbd4 77bd 6196 a9bd 1ccd dabd 6b71 9abd
00000090: a76d 893d 181e 0abd d94f 043d 08ff 34bd
000000a0: 497c c8bd 4c4b 5fbd ee69 5fbd ac43 66bd
000000b0: dc6a b93d dd4f 613d ba10 0abd f39f eeba
000000c0: 9d20 bcbd e99c 4abd e4f5 46bd 21b9 63bd
000000d0: 2cec 0d3c 983a bb3c 0e76 c43d c7ae 473d
000000e0: d35e 50bd a65f 553c 4d38 25bd 7925 9139
000000f0: e616 b73b 7dee acbc f8b0 963d 4326 f03d
00000100: f607 bbbd d044 d0bd 98a2 47bd f3aa 473d
00000110: d73c 94bd 3d33 4fbc 7221 4a3d ec50 46bd
00000120: 9681 5fbd 3f7f 58bd a8eb d7bd 3250 58bd
00000130: d0a3 04bd a69d 3f3c 9577 20bc b0b1 debc
00000140: a788 adbd 10f3 bcbd d9e6 ee3c ab50 71bd
00000150: 22cd b53b dcb1 873d 7547 6c3d d3bf cb3d
00000160: e9a8 8cbd 0152 17bd 2784 423c 671f 8b3d
00000170: 8e65 d53c cca7 2e3d a345 d93c 31c7 4a3d
00000180: 0045 ccbd ebf5 9ebd 8947 abbd f5b4 2a3b
00000190: d465 113d 3183 b93d fc03 a7bc 38fe 9b3c
000001a0: 5352 dcbd bff6 3fbd 40ac 97bd c0c9 f63b
000001b0: dc6a c0bc aa30 743c 43e2 983d 2bf4 a23d
000001c0: 7f84 b6bd fe29 0bbd 6848 e0bd c83d 59bc
000001d0: 338e c93d 615d 973c e4ea 6cbc 4533 623d
000001e0: 5ba5 333c 8324 b13c 4021 f6bc cbec 823d
000001f0: e4ac 9c3d 9c8b 5b3d 8827 83bc 50ca 1c3c
00000200: 66e3 3fbd b33d 83bd d960 063c 94ac 35bd
00000210: 8c34 91bd 0b9e 223c 3bab 3fbd 18f7 c73c
00000220: 1048 8cbd dd77 3dbd b3c3 15bd d188 163d
00000230: 4f87 07bd 79ba f4bb a689 803c faaa f13c
00000240: b8ad edbd 859b 26bd 7bae 40bb f637 a1bc
00000250: 25cd cabb 32aa 963d 9505 51bc 80c6 9a3d
00000260: 1f96 6e3c eedc 9dbd f875 abbd c568 80bc
00000270: 2c16 b63d d002 35bc 30b5 e73b 7f20 5c3d
00000280: 7187 d5bd 9de5 6abd 2975 cfbc 570f 33bb
00000290: 6020 083d a7d7 633c 6505 50bc f746 243d
000002a0: 4a0c 803c eb83 21bd aa21 e5bd 2994 ac3b
000002b0: 235b 3cbb cfac 70bd 5c71 8dbc f19a 523d
000002c0: 22bc a9bd 2e95 7d3b bece e1ba 6c52 00bd
000002d0: 07a9 3d3d f6d2 06bd 160d 723d 77cb 483d
000002e0: 8007 70bc 4214 73bd da09 46bb 8845 ec3c
000002f0: 650e e9bb 0f15 603d bff8 7dbc daa9 fd3d
00000300: 414e 423d 3ee2 f3bd 8cf5 a1bd d10e 44bd
00000310: c261 25be 09c0 9abc 96b2 88bd 2316 24bd
00000320: 7b0e 583c 2360 4ebd e22d 35be e31e 0abe
00000330: 2ba8 5fbd 854b 59be 5d09 8abd fb28 53be
00000340: 0619 e1bd eaac 383b 7e57 a4bd 7ef0 8fbd
00000350: 78a8 06bc 2abf b1bd b5d3 f8bd 417d 99bd
00000360: 774a d83c c8b4 d23b f59a 813c 18dc c1bb
00000370: 1c38 553d b084 51bc 4bca ab3c cfa8 d4bc
00000380: f1e4 bf3d b053 743d a4bc 403d 01e0 bc3d
00000390: 1906 02bc 8744 2c3d 8b6c 8f3c 5f63 15bd
000003a0: 37b6 1e3d 08ac aa3d a3f9 093e a105 a0bb
000003b0: 0677 7abb 5bab 863b 2a96 283d c7a0 b2bc
000003c0: 4b22 1f3e 1c88 283e 0ceb a43d 145e b23d
000003d0: 943c d23d 9cf3 d43c 0c77 8d3c ac79 0a3d
000003e0: 5589 443e 1e4e ac3d 2576 fe3d 1c1a be3d
000003f0: e871 0d3e 6cd4 7f3c 2bb9 19bd 5dba d1bb

network_body.observation_encoder.processors.1.conv_layers.0.bias f4 [16]
0.003193687 -0.084634036 -0.014030593 0.016449677 0.031413995 -0.00936126 0.10519197 0.009920687
-0.013873855 0.0066275354 0.0158614 -0.06124379 -0.01708564 0.047879744 -0.018246746 0.06620122
00000000: 2d4d 513b 9c54 adbd 93e0 65bc 79c1 863c
00000010: f6ab 003d f85f 19bc e36e d73d 618a 223c
00000020: 2a4f 63bc cc2b d93b c4ef 813c c5da 7abd
00000030: 2ff7 8bbc 8d1d 443d 337a 95bc 8194 873d

network_body.observation_encoder.processors.1.conv_layers.2.weight f4 [32, 16, 4, 4]
-0.011735724 0.035737194 -0.02258204 0.015812607 0.15026748 0.035732627 -0.015185311 -0.03325281
0.06691946 -0.0067987256 0.04133255 0.06145028 0.057313014 0.027888056 0.05215221 -0.0066258404
-0.12734984 -0.0967543 -0.016337479 0.059303258 -0.103726216 -0.06291856 -0.0026172008 0.09494747
-0.077650174 0.020905834 0.052029733 -0.048267152 0.040144913 0.04948325 -0.071018554 0.07848936
-0.039859395 0.047476817 0.025171211 0.010484042 0.019029522 0.041557387 0.026129799 -0.053279135
0.09295755 0.0028687078 -0.01751693 0.028183019 0.016757535 0.03860288 0.026506325 -0.0009218733
0.058748912 -0.028584229 -0.02195571 -0.1644479 -0.017186793 -0.046237733 -0.08312616 -0.12266515
0.058068972 0.00898987 0.018305276 -0.07016267 0.07047234 0.04161699 0.00042304854 0.01535451
-0.084598005 -0.08388818 -0.065058425 0.04264391 0.06467575 -0.08277952 0.035394747 -0.023169866
0.06685218 -0.0453904 0.08487574 -0.0018266042 0.024602158 -0.010821242 0.05751362 0.03478074
-0.028291479 -0.092610024 -0.084784076 -0.022399975 0.03268285 -0.011176247 -0.012248049 -0.0009470469
0.030963868 -0.0058927485 0.019809358 -0.06395183 0.049078137 -0.07053191 0.013769212 -0.042448413
0.032947447 -0.0064928513 -0.11880871 -0.1353004 -0.036159143 0.070724174 -0.07152288 -0.03650572
-0.046463136 0.042207368 -0.022688048 0.005603335 0.035315175 -0.00017224465 0.0010930451 -0.049110267
-0.005997591 -0.05405987 -0.022583164 -0.03427348 -0.052119173 -0.054621615 -0.022109432 -0.03784397
0.04834958 -0.040954754 -0.061602257 -0.00812075 -0.04827364 -0.017448261 -0.007971568 -0.055046506
0.013954054 0.08251115 -0.06180676 -0.008081788 0.08059912 0.048482716 -0.04795477 -0.044893466
0.051309053 -0.07229317 0.030976208 -0.06024333 0.0046721497 -0.102442876 -0.04902313 0.057745848
-0.07521531 0.015289598 -0.06534095 -0.11656896 -0.026557261 -0.06262563 -0.032482915 -0.02891164
0.028503297 0.032198817 0.008912778 -0.0331856 -0.08919088 -0.010952086 -0.095582224 -0.13533254
-0.0856224 -0.0918573 -0.092218354 -0.06451068 -0.015023083 0.0492796 -0.003712873 -0.045465034
0.031630777 -0.06911474 0.009204639 -0.02444153 0.04486922 -0.004636811 0.087116174 0.021182805
-0.01982302 0.17971608 -0.07673615 0.057301477 0.038222797 0.16024446 -0.06935324 0.008338413
-0.03338698 0.10719858 -0.113500126 0.117674515 -0.06372632 0.092212 -0.07261251 0.08338345
0.04649911 0.0055216663 -0.056917842 -0.011601236 0.17476907 0.015655467 -0.08151904 -0.0919227
0.11193976 0.17768605 0.0738723 0.043295912 0.14783262 0.093829125 -0.07365127 0.004392173
0.021703586 0.08883584 -0.008937956 0.036585983 0.063383766 0.11410278 -0.02066276 -0.05956777
0.03946651 0.09456069 0.09571619 0.044670776 -0.044361446 0.08159723 0.030872101 0.13098519
-0.06882403 -0.21039419 -0.08832785 -0.07533942 -0.008186635 -0.1798589 -0.15077443 -0.18373443
0.13895683 0.023063615 0.024690552 0.013281183 0.19008441 0.05987401 0.019527284 -0.14976652
0.076233655 -0.046493508 -0.057624333 -0.05069125 -0.10778379 -0.018331086 0.025131378 0.004120112
0.04431277 0.0072306436 0.045218255 -0.036435276 0.12674911 0.026834397 0.08074364 0.0044426
00000000: 3247 40bc 2a61 123d f8fd b8bc 7189 813c
00000010: b8df 193e 605c 123d d0cb 78bc 1934 08bd
00000020: 120d 893d d8c7 debb 524c 293d 4ab3 7b3d
00000030: 0dc1 6a3d 7e75 e43c 8e9d 553d 941d d9bb
00000040: ff67 02be 1e27 c6bd 2dd6 85bc f9e7 723d
00000050: 696e d4bd 72db 80bd 5885 2bbb d273 c23d
00000060: 0e07 9fbd b642 ab3c 211d 553d c7b3 45bd
00000070: fe6e 243d f3ae 4a3d 2d72 91bd 08bf a03d
00000080: 9b43 23bd 0d77 423d db33 ce3c 42c5 2b3c
00000090: cde3 9b3c 1438 2a3d 290e d63c 393b 5abd
000000a0: 8760 be3d ee00 3c3b aa7f 8fbc 13e0 e63c
000000b0: 1947 893c 0e1e 1e3d cb23 d93c dfa9 71ba
000000c0: b3a2 703d 7929 eabc 76dc b3bc 0865 28be
000000d0: 51cb 8cbc c763 3dbd 0c3e aabd de37 fbbd
000000e0: bbd9 6d3d 3f4a 133c f2f4 953c 72b1 8fbd
000000f0: cd53 903d 9476 2a3d 9dcc dd39 7c91 7b3c
00000100: b841 adbd 91cd abbd 5a3d 85bd 61ab 2e3d
00000110: b874 843d 4f88 a9bd 15fa 103d bbce bdbc
00000120: cce9 883d 49eb 39bd 55d3 ad3d ab6a efba
00000130: 778a c93c 944b 31bc 6793 6b3d 4076 0e3d
00000140: 88c3 e7bc 53aa bdbd 46a3 adbd 2780 b7bc
00000150: 74de 053d 941c 37bc 0aac 48bc 3e43 78ba
00000160: f0a7 fd3c f517 c1bb 3c47 a23c 2df9 82bd
00000170: 2806 493d 0973 90bd 4398 613c 63de 2dbd
00000180: e7f3 063d fcc1 d4bb fb51 f3bd 308c 0abe
00000190: 9c1b 14bd d6d7 903d 967a 92bd 0687 15bd
000001a0: 2150 3ebd a2e1 2c3d 49dc b9bc 2e9c b73b
000001b0: a5a6 103d 929c 34b9 8244 8f3a d927 49bd
000001c0: 7187 c4bb e26d 5dbd 5400 b9bc 5962 0cbd
000001d0: ea7a 55bd eaba 5fbd d71e b5bc 4702 1bbd
000001e0: 360a 463d 2cc0 27bd a652 7cbd e50c 05bc
000001f0: 95ba 45bd a8ef 8ebc 2e9b 02bc 7278 61bd
00000200: 8b9f 643c 9bfb a83d 1629 7dbd 7a69 04bc
00000210: 2711 a53d d095 463d 396c 44bd 36e2 37bd
00000220: 7129 523d 710e 94bd d1c1 fd3c b6c1 76bd
00000230: d518 993b 92cd d1bd 7acc 48bd e986 6c3d
00000240: 7c0a 9abd 3981 7a3c 7ad1 85bd b5bb eebd
00000250: 9d8e d9bc de41 80bd ce0c 05bd 1bd8 ecbc
00000260: bf7f e93c e8e2 033d e706 123c a0ed 07bd
00000270: b5a9 b6bd 6170 33bc 9dc0 c3bd 9d94 0abe
00000280: cc5a afbd ae1f bcbd fadc bcbd 2d1e 84bd
00000290: 6123 76bc 68d9 493d ac53 73bb 8b39 3abd
000002a0: 468f 013d 078c 8dbd 0ecf 163c 9b39 c8bc
000002b0: cac8 373d 64f0 97bb f769 b23d 9087 ad3c
000002c0: e363 a2bc 7e07 383e d827 9dbd f4b4 6a3d
000002d0: 828f 1c3d 2017 243e 1209 8ebd d79d 083c
000002e0: c9c0 08bd ee8a db3d c172 e8bd 56ff f03d
000002f0: f282 82bd a5d9 bc3d deb5 94bd f1c4 aa3d
00000300: da75 3e3d 18ef b43b af22 69bd 1c13 3ebc
00000310: aaf6 323e e53f 803c 74f3 a6bd f841 bcbd
00000320: ac40 e53d 55f3 353e 5c4a 973d 0e57 313d
00000330: 6f61 173e 7c29 c03d 7ad6 96bd 38ec 8f3b
00000340: b8cb b13c 91ef b53d 8170 12bc 2fdb 153d
00000350: 59cf 813d b8ae e93d f344 a9bc 56fd 73bd
00000360: a3a7 213d 09a9 c13d da06 c43d b4f8 363d
00000370: 59b4 35bd 731c a73d 7de7 fc3c fb20 063e
00000380: 9df3 8cbd 9371 57be 3be5 b4bd 8e4b 9abd
00000390: 3c21 06bc ee2c 38be 9d64 1abe e124 3cbe
000003a0: b34a 0e3e e8ef bc3c d743 ca3c 5299 593c
000003b0: 7da5 423e 733e 753d aff7 9f3c 655c 19be
000003c0: 6420 9c3d fa6f 3ebd 7e07 6cbd a1a1 4fbd
000003d0: bfbd dcbd 132b 96bc 52e0 cd3c 0102 873b
000003e0: 4f81 353d 09ef ec3b c736 393d 283d 15bd
000003f0: 85ca 013e cfd3 db3c ec5c a53d 3b93 913b

network_body.observation_encoder.processors.1.conv_layers.2.bias f4 [32]
0.0038128963 -0.018758964 -0.035792347 -0.09417068 -0.11338691 -0.109760925 0.0317361 -0.009949638
0.0553668 -0.044181593 -0.030734835 -0.11882769 -0.06811346 0.0351709 -0.079012066 -0.013070516
-0.04886071 -0.119423866 0.020480055 -0.12804076 -0.040016815 0.067127556 -0.029191015 -0.037671942
-0.07303937 -0.100096546 -0.05330633 0.027003143 -0.098773666 -0.078103885 -0.07449495 -0.08294213
00000000: c9e1 793b 66ac 99bc ff9a 12bd 8fdc c0bd
00000010: 6537 e8bd 56ca e0bd b6fd 013d ce03 23bc
00000020: 4cc8 623d c2f7 34bd 9fc7 fbbc ef5b f3bd
00000030: 127f 8bbd 5d0f 103d 14d1 a1bd b825 56bc
00000040: 2b22 48bd 8094 f4bd cac5 a73c 1e1d 03be
00000050: ace8 23bd 2c7a 893d ff21 efbc e54d 1abd
00000060: aa95 95bd 6bff ccbd bd57 5abd b235 dd3c
00000070: d949 cabd eef4 9fbd cf90 98bd 90dd a9bd

network_body.observation_encoder.processors.1.dense.0.weight f4 [20, 576]
-0.16126113 0.07242713 0.10260978 0.028920963 -0.08932872 -0.020970754 -0.321197 0.028956993
0.069139756 -0.03691739 -0.13061528 0.0012067336 -0.0005396454 0.22857873 -0.09361883 0.049948324
-0.08209098 -0.0018497737 0.03975088 -0.05616537 0.027657183 0.056271605 -0.015008089 -0.06617313
-0.01701685 -0.067913786 0.0950463 0.12128981 -0.020651301 -0.02778346 0.035849966 0.148502
0.10326582 -0.016454507 0.021040684 -0.01311041 0.05280833 -0.050150927 0.0052035027 -0.06864835
0.062539816 -0.10022238 -0.0937561 0.054709774 0.07684462 -0.052138917 0.04329376 -0.17217004
-0.09615782 -0.007116437 0.09070396 0.107733466 0.055724047 -0.021699041 0.036282834 0.07852009
0.04488807 0.012799906 0.041452024 -0.27484667 0.22298315 0.25124818 -0.057662677 0.025146002
0.043689992 0.0360963 0.12908143 0.008711687 -0.11947096 0.15215996 0.20512289 0.08452685
-0.2124632 -0.15141922 -0.1387759 -0.022315037 -0.16563769 0.10889217 -0.26814416 -0.1589957
0.089535765 -0.043342043 -0.062188387 -0.13737187 -0.08800123 -0.093154736 -0.1993594 0.16195267
-0.09321389 0.014291665 0.0422799 0.07576811 0.11535454 0.005057143 0.008596866 0.027649246
0.02109304 -0.037987184 -0.0461615 -0.04545895 0.015129014 0.07466558 -0.03905132 -0.028324151
0.06969277 -0.009823408 0.028724771 0.040553007 -0.099961884 0.037918016 -0.0335255 0.04820315
0.12978493 -0.12342187 0.0045014382 0.33430928 0.10646618 0.033894673 0.222202 0.119324
-0.15458742 0.23465371 0.028860578 0.1171004 0.09786403 -0.037727367 -0.0063121836 0.04777737
-0.08896407 0.2261175 0.15869702 -0.13848855 -0.09214644 -0.050609555 0.078501545 0.19308501
0.08253833 0.021578353 0.23919024 0.19664152 -0.02762911 0.07401661 0.23466212 0.07660006
0.036519464 0.14541842 -0.07248556 0.07005031 0.15321496 -0.050444406 -0.021148896 0.05681529
0.020045055 0.095751174 0.008241913 0.20306021 0.14103772 -0.0090074865 0.237181 -0.04715824
-0.024289152 -0.049485024 -0.033294033 -0.115443744 -0.1944179 0.1725055 -0.065402605 -0.030763581
-0.26172626 -0.01735651 -0.0011774964 -0.14856118 0.044824176 -0.06231458 -0.10408983 -0.073955394
-0.053628754 -0.023901897 0.18394648 -0.0917012 0.059742853 0.0017884637 0.031328414 -0.04029334
0.027252357 0.029250568 -0.037430327 0.095610924 0.030729767 0.19430424 0.05344419 0.06548649
0.12732027 -0.15211432 -0.09386545 0.056598175 0.027307307 0.03003324 -0.13314179 -0.014858753
-0.2012971 -0.024939805 0.01496646 -0.11604807 -0.015580853 0.0759589 -0.08257583 0.015571682
-0.0788636 -0.1760825 -0.05538997 0.016976029 -0.06410843 0.08302635 0.008252153 0.16197759
-0.06295792 -0.051913448 -0.018784918 -0.13312072 -0.05428622 -0.16065393 -0.07363943 -0.08159244
-0.045778763 -0.079015724 -0.013189413 -0.1241806 -0.0041674976 -0.0160074 -0.05593536 0.021422077
-0.012423738 -0.015296182 -0.012339365 0.03224211 0.08296485 -0.04009502 0.0011140568 0.071095645
-0.0022605183 -0.030442175 0.11047058 0.098107986 -0.07308121 0.12393179 -0.03892107 0.10660259
-0.057726435 -0.010324596 0.06996522 0.03879587 0.18265101 -0.1107923 -0.07498765 0.19420467
00000000: a321 25be ad54 943d 1425 d23d a8eb ec3c
00000010: faf1 b6bd dcca abbc ef73 a4be 3737 ed3c
00000020: 2599 8d3d b036 17bd 03c0 05be 432b 9e3a
00000030: fd76 0dba 8b10 6a3e 3bbb bfbd 9d96 4c3d
00000040: 511f a8bd 1b74 f2ba d2d1 223d a90d 66bd
00000050: 5191 e23c 0e7d 663d 7de4 75bc c785 87bd
00000060: ec66 8bbc 6216 8bbd a2a7 c23d cb66 f83d
00000070: eb2c a9bc 249a e3bc 6ad7 123d e910 183e
00000080: 087d d33d 9acb 86bc 835d ac3c 0ccd 56bc
00000090: 8c4d 583d 0f6b 4dbd 2582 aa3b 8297 8cbd
000000a0: e014 803d 6441 cdbd 3303 c0bd 5b17 603d
000000b0: b660 9d3d 9e8f 55bd cc54 313d 584d 30be
000000c0: 64ee c4bd 0031 e9bb ffc2 b93d 5da3 dc3d
000000d0: e63e 643d 30c2 b1bc 4f9d 143d 24cf a03d
000000e0: 8edc 373d b2b6 513c 99c9 293d b4b8 8cbe
000000f0: b255 643e 9aa3 803e b32f 6cbd fdfe cd3c
00000100: 47f4 323d b7d9 133d ec2d 043e 77bb 0e3c
00000110: 31ad f4bd d2cf 1b3e bc0b 523e 6a1c ad3d
00000120: f48f 59be a40d 1bbe 451b 0ebe 06ce b6bc
00000130: ed9c 29be dc02 df3d 314a 89be c5cf 22be
00000140: 875e b73d 6d87 31bd 40b9 7ebd 36ab 0cbe
00000150: fd39 b4bd e9c7 bebd df24 4cbe ecd6 253e
00000160: ede6 bebd 9627 6a3c b02d 2d3d 502c 9b3d
00000170: 003f ec3d 64b6 a53b dfd9 0c3c ac80 e23c
00000180: 50cb ac3c 7398 1bbd d713 3dbd 2a33 3abd
00000190: afdf 773c 45ea 983d 47f4 1fbd 0d08 e8bc
000001a0: 15bb 8e3d 5cf2 20bc 3650 eb3c e91a 263d
000001b0: d1b8 ccbd ec4f 1b3d 0952 09bd ab70 453d
000001c0: 57e6 043e 9bc4 fcbd cd80 933b 962a ab3e
000001d0: f10a da3d 24d5 0a3d ec88 633e 2460 f43d
000001e0: 2a4c 1ebe 1049 703e 056d ec3c 56d2 ef3d
000001f0: f06c c83d 0388 1abd 6fd6 cebb 34b2 433d
00000200: cb32 b6bd 598b 673e 7981 223e f1cf 0dbe
00000210: 46b7 bcbd f74b 4fbd 6bc5 a03d 14b8 453e
00000220: db09 a93d 16c5 b03c 49ee 743e 655c 493e
00000230: 7156 e2bc 0596 973d 444b 703e 7ee0 9c3d
00000240: 6f95 153d 91e8 143e 4f73 94bd 8976 8f3d
00000250: 62e4 1c3e cb9e 4ebd 7340 adbc 26b7 683d
00000260: 8735 a43c 3119 c43d 1709 073c 04ef 4f3e
00000270: 316c 103e 2394 13bc 93df 723e 0029 41bd
00000280: 0bfa c6bc cfb0 4abd 535f 08bd c56d ecbd
00000290: 7c15 47be 48a5 303e cdf1 85bd e803 fcbc
000002a0: fc00 86be 3d2f 8ebc 3956 9aba 6c20 18be
000002b0: 8e99 373d 933d 7fbd 0c2d d5bd ed75 97bd
000002c0: d3a9 5bbd e9cd c3bc 775c 3c3e d7cd bbbd
000002d0: ecb4 743d e26a ea3a 3952 003d a10a 25bd
000002e0: 5640 df3c e39e ef3c 8b50 19bd a9cf c33d
000002f0: febc fb3c b1f7 463e 4ce8 5a3d c81d 863d
00000300: 3f60 023e dbc3 1bbe 873c c0bd 7dd3 673d
00000310: 93b3 df3c 4508 f63c 5256 08be 2172 73bc
00000320: d420 4ebe 904e ccbc e235 753c 9caa edbd
00000330: d646 7fbc 5790 9b3d 841d a9bd 5e20 7f3c
00000340: 3d83 a1bd f94e 34be 98e0 62bd 5011 8b3c
00000350: 484b 83bd b809 aa3d 0a34 073c 74dd 253e
00000360: 15f0 80bd 32a3 54bd d4e2 99bc cc50 08be
00000370: 3a5b 5ebd 7782 24be 45d0 96bd f019 a7bd
00000380: 8382 3bbd ffd2 a1bd 6818 58bc 6652 febd
00000390: 818f 88bb f321 83bc 7a1c 65bd 5a7d af3c
000003a0: ef8c 4bbc d69c 7abc 0c2b 4abc 4e10 043d
000003b0: 7ae9 a93d ad3a 24bd 8b05 923a 989a 913d
000003c0: 3425 14bb de61 f9bc 663e e23d d7ec c83d
000003d0: 9aab 95bd f3cf fd3d b36b 1fbd 7552 da3d
000003e0: 8e72 6cbd 7f28 29bc ed49 8f3d 6be8 1e3d
000003f0: de08 3b3e 13e7 e2bd 2093 99bd 97dd 463e

network_body.observation_encoder.processors.1.dense.0.bias f4 [20]
0.009601497 -0.025708092 -0.05158682 0.057274994 -0.037892934 0.041918747 0.022268774 0.089777656
-0.04431235 0.06281003 0.0024499134 -0.046699617 -0.014424138 -0.032932516 0.010636382 0.066446885
0.02851538 0.0015304257 -0.023734298 -0.020488186
00000000: 994f 1d3c c799 d2bc b44c 53bd 2f99 6a3d
00000010: 9f35 1bbd feb2 2b3d 016d b63c 59dd b73d
00000020: de80 35bd 8ca2 803d ba8e 203b 1948 3fbd
00000030: 3853 6cbc 3fe4 06bd 3844 2e3c 4e15 883d
00000040: 1699 e93c 9198 c83a 6e6e c2bc d7d6 a7bc

network_body.observation_encoder.processors.2.conv_layers.0.weight f4 [16, 3, 8, 8]
0.020698624 0.030464176 -0.08200857 0.02259794 -0.026314843 -0.04124552 -0.01122429 0.0046137013
0.034694172 0.044550687 0.06817182 -0.016860317 0.04370888 -0.048203837 -0.06328718 -0.08009081
-0.028101344 -0.020143706 0.006591023 -0.02183347 -0.0394523 0.07340659 0.0069673033 -0.066028826
-0.041908942 -0.022945777 0.08039491 -0.021909686 0.016956367 -0.030459099 0.030646224 -0.007948076
0.08915819 0.07639768 0.0011189634 -0.01746439 0.07091608 0.07374423 0.017694734 -0.0020717126
-0.044444777 0.057298824 -0.026988547 0.020404017 0.032821566 0.04604934 -0.055461604 -0.037033584
0.024291446 0.1623958 0.103904024 0.08667882 0.07508776 0.11295949 0.21294759 0.021888504
0.02252945 0.16950253 0.03003684 0.14336261 0.036503535 0.2034026 0.08568278 0.15797962
-0.03700057 -0.10445214 0.015474926 -0.06341803 -0.07197771 -0.040524162 -0.065909766 -0.039561845
0.047684953 1.0470239e-05 -0.0030729743 -0.036714304 -0.058424074 -0.0031155224 -0.12369321 -0.13319008
-0.038759924 -0.055636086 -0.077512786 0.018932693 -0.087253466 -0.024112327 -0.03707879 -0.0025328873
0.003950479 0.015475496 0.03472457 -0.05589875 -0.06275067 -0.045581087 -0.069306254 0.04124033
-0.0050620283 -0.0024690907 -0.030212395 -0.052559964 -0.030762445 -0.053727783 0.0058621974 -0.083186686
-0.05219144 0.05468752 -0.018441098 -0.026463006 -0.04730147 -0.065116726 -0.027856477 -0.06325363
0.040737107 0.077174224 -0.009089975 0.107998274 0.054750293 0.113764025 0.15003386 0.06065187
0.050195992 0.066548675 0.09402015 -0.003853953 0.041598838 0.1442515 -0.03747348 0.039356567
-0.08178483 -0.09817726 0.0013646757 -0.04445089 0.009129067 -0.04907303 -0.12691663 -0.106626056
0.0017720909 -0.024372805 -0.044878244 -0.062343854 0.039568722 -0.09412116 -0.13420622 -0.11224685
0.045021925 -0.05245968 -0.088980794 -0.038340773 -0.027802754 -0.060263734 -0.059511207 -0.11575158
-0.004679633 -0.07721205 0.041012287 -0.037352093 -0.05413678 0.019512229 -0.037571404 -0.09543623
-0.0068634 -0.0065569645 -0.081709005 -0.026880259 0.044339016 0.04567024 -0.021492666 -0.0048819124
0.027983055 -0.07522236 0.029055852 -0.016486473 -0.07068367 -0.015091292 -0.05133815 0.022343438
0.07489116 0.021288449 0.02627353 -0.009934463 -0.0058393427 0.04110494 0.09648688 0.09828336
0.074760385 0.0480633 0.06756282 0.08578251 0.04012109 0.12315146 0.018493453 0.13133118
-0.00016571877 0.028186167 -0.07445498 -0.053095292 -0.010135618 -0.029470999 -0.039851308 -0.0072805025
-0.047508184 -0.03487677 0.020879054 -0.03891991 0.01985634 -0.022202345 -0.04003219 -0.046846386
0.03547395 -0.047077045 0.010623271 0.00027316593 0.06729849 0.011105253 0.018943164 0.013677957
0.027953204 -0.03196083 0.03907603 0.0070363055 0.022964135 0.047751278 -0.043206587 -0.0027840545
0.009270579 -0.019385751 0.044979576 -0.009257105 -0.001569251 0.044560168 -0.0030335977 0.019682594
0.06590459 0.03173879 -0.054809958 0.03194176 -0.08311338 -0.023980772 -0.05683042 0.037540473
0.058557745 -0.05451709 -0.025413116 -0.08140116 0.017248776 0.04165683 0.037554294 -0.060630113
0.027504854 0.07144021 0.04950735 0.015890796 0.021457605 -0.061722014 0.025179645 -0.012958615
00000000: 2990 a93c 0290 f93c 1cf4 a7bd 511f b93c
00000010: 3a92 d7bc 10f1 28bd 16e6 37bc 882e 973b
00000020: 7a1b 0e3d c87a 363d ab9d 8b3d a61e 8abc
00000030: 1508 333d 6371 45bd b69c 81bd a706 a4bd
00000040: ca34 e6bc 6a04 a5bc 82f9 d73b 1bdc b2bc
00000050: bc98 21bd 3256 963d fa4d e43b 1f3a 87bd
00000060: b6a8 2bbd c8f8 bbbc 16a6 a43d f17b b3bc
00000070: 14e8 8a3c 5c85 f9bc ca0d fb3c a638 02bc
00000080: 9298 b63d 6376 9c3d 2eaa 923a 7b11 8fbc
00000090: 733c 913d 3707 973d 8cf4 903c 92c5 07bb
000000a0: ba0b 36bd 2cb2 6a3d 1617 ddbc 5326 a73c
000000b0: e86f 063d 3c9e 3c3d b52b 63bd 87b0 17bd
000000c0: dbfe c63c 164b 263e a2cb d43d aa84 b13d
000000d0: 9dc7 993d 4e57 e73d ef0e 5a3e 854f b33c
000000e0: ae8f b83c 1292 2d3e d20f f63c a6cd 123e
000000f0: bb84 153d c548 503e 747a af3d 69c5 213e
00000100: e98d 17bd 01eb d5bd 8b8a 7d3c 50e1 81bd
00000110: 0d69 93bd aafc 25bd b3fb 86bd 9a0b 22bd
00000120: 4c51 433d 56a9 2f37 f463 49bb bd61 16bd
00000130: 154e 6fbd cb2d 4cbb de52 fdbd fb62 08be
00000140: bac2 1ebd aae2 63bd 06bf 9ebd bc18 9b3c
00000150: f2b1 b2bd 3787 c5bc eedf 17bd ccfe 25bb
00000160: 0573 813b ef8c 7d3c 5a3b 0e3d 16f6 64bd
00000170: 6c83 80bd 3cb3 3abd 70f0 8dbd 9feb 283d
00000180: 5fdf a5bb 78d0 21bb fc7f f7bc 1e49 57bd
00000190: 8601 fcbc aa11 5cbd ad17 c03b c85d aabd
000001a0: b1c6 55bd 0500 603d c911 97bc f2c8 d8bc
000001b0: 30bf 41bd eb5b 85bd 4433 e4bc 1f8b 81bd
000001c0: f4db 263d 850d 9e3d 1eee 14bc 332e dd3d
000001d0: d841 603d 1dfd e83d 7aa2 193e 186e 783d
000001e0: 509a 4d3d ac4a 883d a38d c03d 9a92 7cbb
000001f0: 8b63 2a3d aab6 133e cb7d 19bd 5a34 213d
00000200: ce7e a7bd 2911 c9bd ebde b23a 2312 36bd
00000210: 1592 153c cd00 49bd 6ff6 01be c35e dabd
00000220: 8145 e83a 7aa9 c7bc 40d2 37bd 455c 7fbd
00000230: d012 223d 98c2 c0bd 5b6d 09be ade1 e5bd
00000240: e968 383d f6df 56bd 903b b6bd 370b 1dbd
00000250: 9ac2 e3bc 1bd7 76bd 06c2 73bd 2a0f edbd
00000260: 9b57 99bb 5a21 9ebd 80fc 273d 82fe 18bd
00000270: 87be 5dbd 1cd8 9f3c 79e4 19bd 1274 c3bd
00000280: 5fe6 e0bb cedb d6bb 0d57 a7bd fd33 dcbc
00000290: d49c 353d b810 3b3d 6311 b0bc 73f8 9fbb
000002a0: b83c e53c 2e0e 9abd 8a06 ee3c a40e 87bc
000002b0: 9ac2 90bd 7741 77bc f447 52bd 9609 b73c
000002c0: 8960 993d 1d65 ae3c 963b d73c 28c4 22bc
000002d0: f557 bfbb a75d 283d ea9a c53d c948 c93d
000002e0: f91b 993d 06de 443d 605e 8a3d beae af3d
000002f0: 0356 243d d536 fc3d 957f 973c ae7b 063e
00000300: cbc4 2db9 ade6 e63c da7b 98bd 737a 59bd
00000310: dd0f 26bc 2a6d f1bc 203b 23bd 4891 eebb
00000320: f197 42bd f2da 0ebd 8d0a ab3c 7c6a 1fbd
00000330: c3a9 a23c b1e1 b5bc cbf8 23bd ffe1 3fbd
00000340: 224d 113d dcd3 40bd 3a0d 2e3c b637 8f39
00000350: cad3 893d cff2 353c b22e 9b3c 8219 603c
00000360: 1efe e43c 5ce9 02bd 300e 203d cf90 e63b
00000370: 481f bc3c d896 433d 64f9 30bd af74 36bb
00000380: a0e3 173c dece 9ebc 813c 383d 1dab 17bc
00000390: 53af cdba b984 363d 53cf 46bb 643d a13c
000003a0: fcf8 863d 8900 023d 6880 60bd 5dd5 023d
000003b0: 5937 aabd 5373 c4bc 04c7 68bd 0ac4 193d
000003c0: 3fda 6f3d 504d 5fbd 2b2f d0bc a7b5 a6bd
000003d0: 4e4d 8d3c 5aa0 2a3d 88d2 193d 4857 78bd
000003e0: dc51 e13c 3f4f 923d 38c8 4a3d 6a2d 823c
000003f0: dcc7 af3c 39d0 7cbd 8b45 ce3c 5f50 54bc

network_body.observation_encoder.processors.2.conv_layers.0.bias f4 [16]
0.044499956 0.0064177373 -0.0077214264 -0.05369305 0.051118292 0.012786111 0.036298342 0.05403129
-0.030323073 0.07207569 0.053553846 0.06471885 -0.0119833015 -0.021299005 -0.054544996 0.04641761
00000000: 9645 363d e24b d23b 0504 fdbb 3eed 5bbd
00000010: 6a61 513d d67c 513c 92ad 143d ea4f 5d3d
00000020: 1868 f8bc 6b9c 933d 475b 5b3d 518b 843d
00000030: 9c55 44bc 407b aebc 936a 5fbd 6420 3e3d
