Day2_Drone_Basic(PPO)/My Behavior/My Behavior-499997.onnx (onnx, 481996 bytes, 35 tensors)

network_body.observation_encoder.processors.0.conv_layers.0.weight f4 [16, 3, 8, 8]
00000000: 370b bfbd b0e2 40bd 507f 31bb 98af c2bd
00000010: 2f96 aabd c011 133b 82e9 803c 9b30 a3bd
00000020: 8180 a4bd e714 7cbd fbc7 20bc d471 4f3c
00000030: 10be 59bd c137 d5bd 1225 abbb e473 a7bb
00000040: 8c45 93bc b071 f6bd a055 b2bc 48e2 44bd
00000050: bd9a 633c 269b dabb 0a29 f2bc 59dd e7bd
00000060: 07e0 e4bd 1c94 90bc 225b f2bc 56d3 cdbd
00000070: 3401 aa39 d45c 6ebb 1178 35bd e2aa 043c
00000080: 4ae8 b8bd 6e9e 093b 7343 31bd e198 7ebd
00000090: 10a6 0abe 08bc cdbd 9fb8 98bd 6982 84bd
000000a0: 75fe b6bd f0fa f7bd 1f11 403c 1f8d a03c
000000b0: 9f85 85bc 7875 54bd 9268 debd da54 82bd
000000c0: f4a1 61bc 4607 5ebd f554 ffbc 0773 d3bc
000000d0: bd3f d4bd 1e7e 6c3c e0b9 3bbd dc64 35bd
000000e0: d729 75bd 0c12 c83c 7eca 88bd 1a23 7bbd
000000f0: 9360 8ebc ce5c c9bd 6013 92bc 0a47 bbbd
00000100: df30 9cbd 1ad3 bcbd 560f 55bd a113 843c
00000110: 808b d4bd cc79 9e3c de1e d2bd 1f89 83bd
00000120: 8859 d4bd a921 c1bd 2aa9 aebc c86e d9bd
00000130: c806 d2bc 8fdf c2bd df8e 0a3d afd4 c4bd
00000140: a5eb bfbd 7d6c f8bc 893a 51bd f4c4 43bc
00000150: ce81 87bd ff2e e0bc f4cf ddbb 730e f2bb
00000160: 07f5 99bb 0669 5c3c 44c4 16bd fc49 97bd
00000170: 0937 38bd 8a9f 17bd d635 d0ba 249a debd
00000180: 3fbe 6fbd 156d e9bc edaf 3cbb da1d 86bd
00000190: 2d0f 48bd 1a9b cdbd 1fdf e0bd d1d3 7bbd
000001a0: e11f c6bd 81ae c8bd ecea 8c3c a1fa 813c
000001b0: 58fa e5bc 0a06 2ebc 3e82 d23c a552 42bd
000001c0: df0c 13bd 94eb b3bd 183e 0cbd efb6 77ba
000001d0: 53d6 bebc ffb9 fe3c 3c7f ba3c d3a2 96bd
000001e0: bc8f c1bd d127 f93c 0d9e dfbd c7b9 4dbd
000001f0: 48b3 bebd 9d2a b2bd 59a4 8dbd 47f8 a33b
00000200: 1f44 46bd 471a 96bd c016 93bd e891 083d
00000210: cfc6 8a3c 1273 cbbd 26f3 76bd 9493 7ebd
00000220: 38f2 dcbd fddc 65bd 209a 73bd c545 133d
00000230: e870 113d d519 063d cb73 0fbd 6eb7 e03c
00000240: bf61 84bd f581 88bd d30f c4bc ddca ca3c
00000250: dcc2 b7bd 4baf 03bd 5637 4f3c d720 5abd
00000260: 6258 7dbd a637 b9bd c271 81bc ce37 d0bd
00000270: 6bb1 b5bd 9615 aabd c217 a2bd 7227 61bd
00000280: 9e2a 9a3c 9669 52bd 7daa 65bc 90de a73c
00000290: 465e 7d3c 6f71 a3bd d5c2 1e3d 10f9 d0bd
000002a0: 46cc 2fbd 8cd1 1abd 20a2 c5bc 2ce8 2bbc
000002b0: 5a7b 5cbd 8d23 17bc 8b9a bebb d9fb 3b3c
000002c0: 5ad5 ae3b e91f 7a3b d4f8 4a3c 16fd aebc
000002d0: 2456 cebc 1c2b abbd fc8a 5abd cb8b 9dbd
000002e0: f7e4 c8bd a32f a43c b70e e4bb 52a5 59bd
000002f0: d9ef 703c 4818 9cbc 9e08 2abd 0f0e 43bc
00000300: 6c13 dc3b 203c 623d 7005 ca3c fc95 b2bc
00000310: 5235 2e3d 9441 4e3d f64a 943d 7c0a 0d3d
00000320: ecb8 3dbc a843 663d 81dd 47bc 589d 80bd
00000330: 52b0 35bc 43cf f2bc e770 d53c 6b62 5cbd
00000340: df80 d4bc 0908 89ba 5092 9dbd 730a a5bd
00000350: 3135 03bc 465d fb3c 0987 6e3d 0ddc 0ebd
00000360: 76ba 86bd 874b 8c3b f2f0 87bd dbce a7bd
00000370: 232c aebd 4f3e 843c 1aaa 723d c145 9dbc
00000380: 54da 80bd ec31 93bd 399e 7c3c b274 c2bd
00000390: 4948 b3bd eacb c4bd c461 4cbb 79aa 243d
000003a0: 9e01 bdbd 0b35 233d 4dfb 07bc 2912 1c3d
000003b0: 5bb8 84bd 3d37 163c 7352 58bd e9ba 643b
000003c0: 7bee 90bd e615 23bd 1e61 fcbc c8f6 96bb
000003d0: 02fd 543c f26e 20bc 3bd0 2fbd e6ab 9abd
000003e0: 2aaf 0fbd cdea 273b 58ee 383d eaac 95bd
000003f0: f277 47bd fd24 133d 0e94 853d 5de5 0d3d
-0.09328311 -0.047091186 -0.002708394 -0.09506148 -0.083294265 0.0022441 0.015736345 -0.07968255
-0.08032323 -0.06154337 -0.009813304 0.012661416 -0.053159773 -0.10411025 -0.005222925 -0.005110251
-0.017977498 -0.12033403 -0.021769345 -0.04806736 0.013891873 -0.006671327 -0.029560585 -0.113215156
-0.11175542 -0.017648749 -0.029584471 -0.10050075 0.00032425823 -0.0036371248 -0.044303957 0.008097382
-0.090286806 0.0020998972 -0.043277215 -0.062157515 -0.1353991 -0.1004563 -0.07457089 -0.06470186
-0.089352526 -0.121084094 0.011722832 0.019598542 -0.016299067 -0.05186984 -0.10859789 -0.063638404
-0.013771523 -0.054206155 -0.03116844 -0.025811685 -0.103637196 0.014434366 -0.04583156 -0.04428564
-0.059854355 0.024422668 -0.06679247 -0.061312772 -0.017380035 -0.09832154 -0.017831504 -0.09144409
-0.07626509 -0.09219952 -0.05201658 0.016122641 -0.1037817 0.019345187 -0.10259794 -0.06422638
-0.10368639 -0.09430248 -0.021320898 -0.10616833 -0.025638 -0.09515297 0.03382766 -0.09610879
-0.093711175 -0.030325169 -0.051081214 -0.011948813 -0.06616555 -0.02736616 -0.0067691747 -0.0073869764
-0.004698399 0.013452774 -0.036808267 -0.07387158 -0.04497436 -0.037017383 -0.0015885185 -0.10869244
-0.058531042 -0.028494397 -0.0028791383 -0.065486625 -0.048842598 -0.10039349 -0.10980057 -0.0614813
-0.09674049 -0.09798909 0.017201863 0.01586658 -0.028073475 -0.010621557 0.02569687 -0.047442097
-0.035900947 -0.08785167 -0.034238905 -0.00094495615 -0.023295557 0.03109455 0.022765748 -0.07355275
-0.09451243 0.030414494 -0.10918818 -0.050226 -0.09311539 -0.08699534 -0.069161125 0.005003962
-0.04840481 -0.07329231 -0.071820736 0.033342272 0.016940502 -0.09934057 -0.06029048 -0.06215246
-0.10788387 -0.056118954 -0.059473157 0.03595521 0.035508066 0.03273948 -0.03502254 0.027431216
-0.06463956 -0.06665412 -0.023933327 0.024754936 -0.08972713 -0.032149594 0.01264747 -0.053253975
-0.061851867 -0.09043817 -0.015801314 -0.10166894 -0.088717304 -0.083048984 -0.07914688 -0.05496926
0.01881915 -0.051370226 -0.014017698 0.020491868 0.015464371 -0.0798062 0.038760025 -0.10203755
-0.04291942 -0.037797496 -0.024125159 -0.010492366 -0.053828575 -0.009224785 -0.005816763 0.011473619
0.005335492 0.0038165993 0.012388427 -0.021360915 -0.02518756 -0.08357832 -0.053355202 -0.07692679
-0.098092966 0.020042246 -0.006959762 -0.053136177 0.014705622 -0.019054547 -0.041512124 -0.011905207
0.0067161825 0.05523312 0.024660796 -0.021800034 0.04253132 0.05035551 0.0724086 0.034433827
-0.011579733 0.056216866 -0.012198807 -0.06280011 -0.011089401 -0.029639846 0.026054813 -0.053804796
-0.025940357 -0.0010454665 -0.076939225 -0.08058634 -0.008008287 0.030684125 0.05823425 -0.034877826
-0.06578533 0.0042814645 -0.066377535 -0.081937514 -0.08504512 0.016142992 0.059244253 -0.0191983
-0.06291643 -0.07187256 0.015418583 -0.09494914 -0.08754022 -0.09609206 -0.0031186203 0.040201638
-0.09228824 0.039845508 -0.008299661 0.038103256 -0.064804755 0.009168443 -0.052813005 0.0034901446
-0.070767365 -0.039815806 -0.030808028 -0.0046070553 0.012999775 -0.009792076 -0.042923193 -0.07552318
-0.03507916 0.002562213 0.045149177 -0.07308371 -0.048698373 0.035923947 0.0652238 0.034642566

network_body.observation_encoder.processors.0.conv_layers.0.bias f4 [16]
00000000: 7e48 79bd 0b9a 513d 757e 0f3d 33f3 80bd
00000010: a72c 083c 41ac 413d 4280 63bc aa58 2b3d
00000020: fedd 593d d152 863d a346 4b3d 9d57 653d
00000030: 64a8 263d 12e6 a93d 0be9 9ebc 156d 08bd
-0.06086015 0.051172297 0.03503271 -0.062963866 0.008311427 0.047283415 -0.0138855595 0.041832604
0.053190224 0.06558765 0.04962791 0.055991758 0.040687934 0.082958356 -0.019398233 -0.033307154

network_body.observation_encoder.processors.0.conv_layers.2.weight f4 [32, 16, 4, 4]
00000000: 2317 4fbc c1f3 d43c ab65 6d3d 0867 1f3c
00000010: 0667 8abb 697e 3a3d a396 043d 37f8 013e
00000020: 4e4e 843d f996 4f3d cd0f e33b 2d1c d43d
00000030: fd07 8b3d 8082 e33d 38b2 593d 9c2f f53d
00000040: 1c9c 36ba 0eba 46bc a1f3 7d3d 014d 453d
00000050: 52a3 d23c 381a 8d3d ade0 0cbb 23f6 283c
00000060: 3cbd 5ebc ed2b c33d 8ecd 883c b1f7 523d
00000070: 5b16 ac3b 6e2f 1e3c 4309 683d 1774 36bd
00000080: 77bd 443d 3c3b 68bd 85ea 30bc dd45 f7bc
00000090: 8fa3 29bd f0ca 903c d9a6 79ba 7e49 b9bc
000000a0: 75e8 9fbc 3065 2dba 0998 713d c286 283c
000000b0: 1726 af3c 5845 6a3c df65 23bc 4526 09ba
000000c0: 1d14 193d 1efb cf3d d02e a83d 15d9 dd3b
000000d0: 343f 30bc b23d 623d 71ce 753d 5078 933d
000000e0: e491 9b3d 6fe5 c33d 378c 7b3d 592e 14bd
000000f0: dabc c83d 9cd0 683b 2d78 2f3d 9394 f53b
00000100: 1712 383d 82b4 c3bc a089 70bc c643 863d
00000110: 62be 9abc d0ef eabc f4ef c1bb dcb0 523c
00000120: b47a 703d e60b 88bc 297d 153c 6558 e2bc
00000130: 2973 ebbc 6453 2dbd 66ab ba3d 3004 873c
00000140: d596 77bc ab75 cc3d 6362 49bd 6d06 973d
00000150: 3c14 e23c b3ee a43d 20a9 9aba 1b90 043c
00000160: 49e3 32bd 7311 2bba 90a7 01bd 25d2 9dbb
00000170: 5362 a0bc 7149 b0bd 5776 bbbc ce6d c73c
00000180: 3186 293d 5de7 5f3d e936 af3c 8bd9 2e3c
00000190: 5408 033c 0cd5 d63c 0683 813d 20af bdbc
000001a0: 4ca9 d43d cefd 2d3d e996 d23c 68d2 b93d
000001b0: 1e2a ee3a 95e4 f23c e332 0f3d 40a9 9d3c
000001c0: 73d0 6a3d ef1d 503d e3d1 b43d daa3 8ebb
000001d0: 2c3a ea3c 2013 7e3d e0d6 df3d 3e48 ad3d
000001e0: c8f2 de3d 601d a6bb e548 a73d 7c8b 9c3d
000001f0: 93d9 0a3d 117d 103e 7a73 b43d e46e a33d
00000200: 3514 0a3d 6bbe 543c e7bc 693c 393a d13d
00000210: 8eb5 d03d 3086 033d 28cb 2f3d abe4 8e3c
00000220: aca9 f93c 3bb3 073e 29ba 12bb 7a49 d93d
00000230: 67e6 033e a02c 7f3d d23e 773d 0fb8 603d
00000240: 9f88 893d a0e0 d9bc 0a18 ca3d 85f0 9a3d
00000250: 5b6e 313d 230f f8bc ee54 833c 801a d9bc
00000260: 4908 1fbc ad86 91bc cf8c a7bc aa6b 1e3d
00000270: 898a 31bd 6c2a ffbc 822b 503c 2930 7e3a
00000280: fb7a 573d 45b2 233d 3d0d 943c 8b58 f33c
00000290: bb42 e6bc ff4e 6f3d a873 22bd 8427 ccbc
000002a0: 9b29 7c3d a59d e3bc ab1b e43d 8c87 e23c
000002b0: 5d39 c43c 0b5c c23d 88f7 9a3d be68 013e
000002c0: 85da 353d 0703 b53d f423 003c 5ea2 7b3d
000002d0: e1e9 aa3d b464 48bc cef6 fd3d 966c 483c
000002e0: 42a0 80bc 90f9 d2bc a28f a93c d2bf 6a3d
000002f0: 6768 953d a5a1 80bc 1742 543d 0002 9fbc
00000300: ea78 c23d 131f 4e3d 79f1 183e 3954 c73d
00000310: f828 553d bd05 003e f531 263e 54be 033e
00000320: ea2a df3d d9d7 6d3d fad8 1d3e 9acf bb3d
00000330: 1f3b 043d 91d7 823d 0459 cd3d 01da 003e
00000340: eae0 6e3d e16d 5c3d 45d3 a63d 5b83 39ba
00000350: 2fe4 81bd c40d 4b3d 6759 acbc b96a 8dbc
00000360: 67b5 ae3b 330a 063d 589f 0ebc 6bf3 e2bc
00000370: f8f9 e23c 2fdd 65bc 13a1 833d 94b1 bcbb
00000380: d7bf b2bc 01ce 553d 97da dabc 166f 343d
00000390: 9e62 ae3c fff1 233d 6248 243d 8330 3c3d
000003a0: 55d4 79bb b893 843d b7c3 573b 2eed dbbc
000003b0: f0ed f43c affd 26bd d086 c0bb 3a1d 5c3b
000003c0: ce28 07bd 70c7 c73c 0b46 f3bc 8c61 9d3c
000003d0: 45c1 46bd 5941 d63b 9e85 483d ef23 2fbd
000003e0: a820 79bd 2dff 54bd a6c7 053d 160e afbb
000003f0: 1396 513c a6cf d33c e1ea dfba d29b 333d
-0.012639794 0.025995137 0.057958286 0.009729154 -0.004223707 0.04553071 0.03237022 0.12692343
0.06460248 0.050681088 0.006929374 0.103569366 0.06788633 0.11108875 0.05314848 0.119719714
-0.0006966011 -0.01212932 0.06199992 0.04816914 0.025712643 0.068897665 -0.0021496222 0.01031259
-0.013594922 0.095298626 0.016699579 0.05150575 0.0052516884 0.009654863 0.056649458 -0.044544306
0.04803225 -0.056697115 -0.010798101 -0.03018468 -0.041415747 0.017674893 -0.00095234584 -0.022618052
-0.019520024 -0.00066145044 0.058982883 0.010286035 0.021380467 0.014298759 -0.009973018 -0.0005231838
0.037372697 0.10155319 0.08212054 0.006770263 -0.010757256 0.05523462 0.06001133 0.07200682
0.07596186 0.09565245 0.061413016 -0.036177013 0.098016456 0.0035524732 0.042839218 0.007494518
0.044939127 -0.023889784 -0.01468125 0.065558955 -0.01888961 -0.028678805 -0.005918497 0.012859549
0.05871077 -0.016607236 0.009124079 -0.02763004 -0.028741436 -0.042315856 0.09114723 0.016481489
-0.015111645 0.09983381 -0.049166095 0.073742725 0.02759754 0.08053341 -0.0011799671 0.008090998
-0.043673787 -0.00065257325 -0.03165394 -0.004816311 -0.019578135 -0.08607758 -0.022883577 0.024344351
0.04138774 0.054664005 0.021388488 0.0106719835 0.007997591 0.026224636 0.06323819 -0.023154795
0.10383853 0.042478375 0.025706725 0.09073335 0.0018170511 0.029650012 0.03496064 0.019245744
0.0573277 0.050809797 0.08829095 -0.0043530287 0.028592192 0.062029958 0.10929656 0.08461045
0.108861506 -0.0050694197 0.081682004 0.07643792 0.0338989 0.14110209 0.08811088 0.07980135
0.033710677 0.012984852 0.014266229 0.10216183 0.10190879 0.032110393 0.042918354 0.017443022
0.030476414 0.13251965 -0.0022388792 0.10609718 0.1288086 0.062298417 0.060362644 0.054863032
0.067155115 -0.026596367 0.09867866 0.07565407 0.043318134 -0.030280655 0.016031709 -0.026501894
-0.009706565 -0.017764414 -0.020452885 0.038676895 -0.043345008 -0.031148158 0.012705686 0.00096965075
0.052607518 0.039964933 0.018072719 0.029705307 -0.028107991 0.058424946 -0.03966108 -0.024921186
0.061563116 -0.027785132 0.1113809 0.027652524 0.023953134 0.09490212 0.07566744 0.12637612
0.04439785 0.08838468 0.007821072 0.061434142 0.0834539 -0.012231041 0.1240059 0.01223292
-0.015701417 -0.025753766 0.020698372 0.05731184 0.07295304 -0.015702078 0.05182084 -0.019410133
0.09495719 0.050322603 0.14935865 0.09732861 0.052041024 0.12502189 0.16229995 0.12865573
0.10896857 0.058067176 0.15414801 0.09170456 0.032282945 0.06388772 0.10026744 0.12583162
0.058319964 0.053815726 0.08145765 -0.00070767634 -0.06342351 0.049573675 -0.021038724 -0.017262803
0.0053316834 0.03272457 -0.008704983 -0.027703961 0.027707085 -0.014029785 0.06427207 -0.0057584736
-0.021819992 0.052198414 -0.02671556 0.044051252 0.021287259 0.040025707 0.040108092 0.045944702
-0.0038120945 0.064734876 0.0032923052 -0.026846495 0.029898614 -0.040769275 -0.005875446 0.0033586756
-0.0329979 0.024387091 -0.029696485 0.019211553 -0.04852416 0.0065385518 0.048955552 -0.04275888
-0.06082216 -0.052001167 0.032661103 -0.0053422553 0.012792128 0.02585585 -0.0017083549 0.043849774

network_body.observation_encoder.processors.0.conv_layers.2.bias f4 [32]
00000000: c809 dfbc 119b 083d bd4d dabd 922e b73c
00000010: 16e9 82bd ad8b ae3c ab99 2dbc 6fc4 b3bc
00000020: 2657 23bd b564 d6bb 336a 0abd 622b e0bd
00000030: 81ad febd 08da 4bbd 9d71 09be 911b 9fbd
00000040: 1fe7 d7bd b3c4 0bbe dede d2bc b088 90bd
00000050: a901 03bd 7e32 ccbd 8c5f 91bd b30a a3bd
00000060: 3364 bcbd 705b 39bc 789e 61bb dcf7 82bd
00000070: 9981 39bd 46fd 013c c26b c03d b422 2e3d
-0.027226344 0.033351008 -0.10659359 0.022361074 -0.06392114 0.021306837 -0.010595719 -0.021944253
-0.039878033 -0.006542767 -0.033792686 -0.109457746 -0.12435437 -0.049768478 -0.13422246 -0.0776893
-0.1054213 -0.13649254 -0.025741037 -0.07057321 -0.031984005 -0.09970568 -0.07098302 -0.07961025
-0.09198799 -0.011313304 -0.003442673 -0.06394932 -0.04528961 0.00793392 0.09395553 0.042513564

network_body.observation_encoder.processors.0.dense.0.weight f4 [20, 576]
00000000: 44cc ab3d ccc8 293d e778 e43c 07d8 8e3d
00000010: 47c3 6e3c b481 efba 4ae3 993c 072a 803d
00000020: 40ab f23a c475 b13d a9a6 013d 053d a93d
00000030: 4846 083d 40d3 c83d 6b3c c03c 31e1 813b
00000040: bbd3 04bd 41ac 023e daf1 96bd 8309 9dbd
00000050: 6d25 77bd f2a4 1a3d ef23 38bd 70a5 bfbd
00000060: e608 a9bc 1e35 e6bc 61b7 7fbd f12b 89bd
00000070: 2127 46bc fd44 0cbd 6623 e93c 5fb5 013d
00000080: a8d2 91bd 607d 0f3c a425 1fbd 8342 3bbc
00000090: 1c45 9c3d eddc 23bd 00da 983c befb aa3c
000000a0: aa3b 1d3d a035 0dbd 88a3 85bd 4d61 383c
000000b0: 7a81 aeba c71e 8f3c 505a c33c 5659 87bd
000000c0: 743d d23c e573 16bb 3550 733c 0aea 423d
000000d0: c0d8 acbd a663 413e bf21 eb3c 7725 b7bd
000000e0: 9d06 6dbd 68f2 3ebd ad5b 9c3d 4433 f4bc
000000f0: 464b 0b3c 6dd6 8d3c 4f40 be3c efa3 3cbc
00000100: 0113 2e3d c6a8 683c 6bbf 0bbe 649f 14bd
00000110: 803e b0bd 4483 0b3d 9c1b 7f3c e3af 913d
00000120: 447f 11bd 6f1d edbc ddf0 5b3d b99d 43bb
00000130: d1da ce39 bbda bbbd 0cae 6e3c a6d8 babd
00000140: 2360 8d3d 2016 2fbd 699f 823d 063b 64bd
00000150: c36d 28bd fa6d 4abd 4348 16bd 2dd3 20bd
00000160: 8bef 133d 7510 a5bd 3da9 ffbc f3ef 713c
00000170: b20d cfbd a532 f13c 0377 c1bd 2a6e 993d
00000180: 9713 493d 2667 0bbe 45ca 1e3d e036 08bd
00000190: 85e4 2fbd 2a1a 1bbe a5ed 20bb 8e89 aa3d
000001a0: 4a57 80bc 2a41 d7bd 97bd 9cbc 7186 8fbd
000001b0: 2fac b93d e30b bb3c 38c1 d0bd 1511 783d
000001c0: bb6e 043e 80f3 163d f49f b03b 330e 23be
000001d0: ac52 d8bc 3c30 40bd ebb2 243d 781d cebd
000001e0: 2e1d 16bd d372 efbc ef72 08bd 5836 6a3d
000001f0: 4ada 033c 88aa 533c 611e 5e3d 6517 0abe
00000200: 7959 8f3d 6655 9a3d 751f a1bc 0cd6 283d
00000210: ebff 133c 6fad 363d df2c 1a3c 1cc3 463c
00000220: 418b 1f3e 646a cc3c 176f 80bb 6a1e 0e3e
00000230: d244 95bd 921b 61bc 26a1 56bd a398 43bd
00000240: b0ca 113c 7f0f bcbd 8862 8fbd 2d53 cf3c
00000250: 5623 d6bd 7d11 d4bd 7a22 0cbe 80d4 ec3c
00000260: cc79 163d eae6 27bd ebb4 5a3d 4ca4 61bd
00000270: bc7d 81bd 52d7 8abd 4ee6 62bd 8a56 ddbd
00000280: 98d6 dbbc 0d71 ac3d 224c 76bd beb3 63be
00000290: 6076 b4bd 8c88 e0bd 897e 4dbd 16c4 f6bd
000002a0: e7a5 4dbd 87ae 553c 8d09 343d cfab dcbd
000002b0: 795f 19be bf33 51be ee57 48bd cf15 563c
000002c0: f9f1 87bd 5411 8bbd a8e8 7cbd a32d 6bbd
000002d0: 2c0e 033e 0a6b 093c 2898 81bc 1efd efbc
000002e0: 1d02 193e 43ac fe3c 8b8e 55bc ed0d 73bd
000002f0: 8cb7 353d 2ee5 4abd 48b0 54bd 8bd2 073d
00000300: 96f1 e9bc 848d 153d ea3d 1c3d 58ee 063e
00000310: 4746 0c3d a1eb 043d 8d09 0d3d a0d9 82bd
00000320: 89a3 2c3d cdea 3b3d db52 fdbc 574d 2bbb
00000330: a32c 403c 745c 2d3c b296 803d f7e2 ca3c
00000340: eac5 f23a fe47 163e 1244 fa3c cc98 59bd
00000350: d8a1 9e3d 6bb1 b33d 8c8e 273c 96da f23c
00000360: 8a1b 293d 9149 89bd e619 8e3c ee92 2ebc
00000370: 0e11 073d afb5 94bd e8d5 a23d 1db5 b53c
00000380: d24b 87bd 3308 eb3c aa49 c8bc a0b7 f8bc
00000390: 1efc 58bd 091f 2dbd 75b1 adbc 92ae 5cbc
000003a0: e8d1 ce3d 8422 9abd 16e2 603c ecd4 de3c
000003b0: 6ad8 0b3e 3617 f23b 1722 c6bc 652c d4ba
000003c0: fda8 8a3d 5eb6 cd3d 9fc8 cabd 101e 48bd
000003d0: cb65 573d a183 853d 8420 b03d 8986 67ba
000003e0: 1e03 923d 9e9e 08bd e136 47bd 2699 563d
000003f0: 90fc 083d a121 c9bc af2e c5bc 2ff9 99ba
0.0838857 0.04145126 0.027889682 0.06974798 0.014572925 -0.0018272907 0.018785138 0.06258016
0.0018514171 0.0866504 0.03165308 0.08263592 0.03327015 0.09805918 0.02346631 0.0039636125
-0.032428484 0.12761022 -0.07370348 -0.0766783 -0.060338426 0.03775496 -0.044956144 -0.093577266
-0.020634126 -0.0281015 -0.062430743 -0.06697834 -0.01209429 -0.03424548 0.028459262 0.03166711
-0.071202576 0.008757919 -0.038854256 -0.011429432 0.07630369 -0.040005613 0.018658638 0.020871993
0.03838698 -0.03447497 -0.06525332 0.011253667 -0.0013313734 0.01747073 0.023846775 -0.06608836
0.025664069 -0.0022957262 0.014850666 0.04758648 -0.08439779 0.18885669 0.028702615 -0.08942693
-0.057867635 -0.046617895 0.07634673 -0.029809602 0.008501833 0.01731416 0.023224024 -0.011513694
0.042498592 0.014200395 -0.13647239 -0.03628482 -0.08605671 0.03406073 0.015570547 0.07113626
-0.03552176 -0.0289447 0.053696502 -0.0029848649 0.00039454413 -0.09172579 0.014567863 -0.09123354
0.06903102 -0.04274571 0.06378061 -0.05572035 -0.041120302 -0.049421288 -0.036690008 -0.039263893
0.036117118 -0.080597796 -0.031208629 0.014766681 -0.10110034 0.029443095 -0.09446528 0.07491715
0.049090948 -0.13613567 0.038767118 -0.033255458 -0.042942543 -0.151467 -0.002455571 0.08327018
-0.015666623 -0.10510476 -0.019133372 -0.070080645 0.090660445 0.022832816 -0.101931036 0.060563166
0.12932865 0.036853313 0.0053901616 -0.15923385 -0.026406609 -0.046921 0.040209692 -0.100642145
-0.03664892 -0.029229557 -0.033312734 0.057180732 0.00804765 0.012919076 0.05422819 -0.13485487
0.069994874 0.0753582 -0.01966832 0.041219756 0.009033184 0.044598993 0.009410112 0.012131479
0.15580465 0.024953075 -0.003919493 0.1387879 -0.07288517 -0.013739483 -0.052399777 -0.047752988
0.008898422 -0.09182643 -0.07001215 0.025308216 -0.104559585 -0.10354898 -0.13685027 0.028909922
0.03673725 -0.0409917 0.053395193 -0.055088326 -0.0632281 -0.0677935 -0.055395417 -0.10807522
-0.026835725 0.0842 -0.0601312 -0.22236535 -0.08811641 -0.10963544 -0.0501695 -0.12049119
-0.050207045 0.013042099 0.04395442 -0.107749574 -0.14977826 -0.20429896 -0.04891198 0.013066723
-0.066379495 -0.067904145 -0.061745316 -0.05741657 0.12798375 0.0083873365 -0.015819624 -0.0292955
0.14942212 0.031088 -0.013034473 -0.059339453 0.044364497 -0.04953497 -0.051925927 0.033159774
-0.02855758 0.036511913 0.038144983 0.13176858 0.03424671 0.032451276 0.034432936 -0.06389165
0.042148147 0.04587822 -0.030923298 -0.0026138627 0.011729392 0.010581125 0.06278743 0.024766428
0.0018522118 0.146759 0.030550037 -0.053124234 0.07745713 0.08774074 0.010226857 0.029645246
0.04128603 -0.06703485 0.017346334 -0.010655148 0.03297525 -0.07261216 0.07950956 0.022181088
-0.066062585 0.028690433 -0.024449188 -0.030360997 -0.052974813 -0.042265926 -0.021202782 -0.013469355
0.1009863 -0.075261146 0.013725778 0.027201138 0.13656774 0.007388021 -0.024186177 -0.0016187547
0.06770513 0.100445494 -0.09901547 -0.048856795 0.05258731 0.06519247 0.08599952 -0.0008831998
0.07129501 -0.033354394 -0.04863632 0.052392147 0.033443987 -0.024552168 -0.024070112 -0.0011747236

network_body.observation_encoder.processors.0.dense.0.bias f4 [20]
00000000: 7456 683c d755 1fbd 2c69 91bc 1d5f 163d
00000010: 58f9 f73c 8b7f 97bd 2233 2c3d d7f6 37bc
00000020: c114 39bd 1554 11bd a64e 7abd 81db 083c
00000030: 9731 2fbc 7e76 bfbc 1cb3 b23d 86a1 16bc
00000040: 1631 51bd 853d 503b c8c5 293c 7262 01be
0.014180768 -0.038900223 -0.017750345 0.0367118 0.030270264 -0.07397374 0.04204095 -0.011228285
-0.045185808 -0.035480577 -0.06111016 0.008353115 -0.0106929755 -0.023371931 0.08725569 -0.009193784
-0.051072203 0.003177495 0.010362096 -0.1263521

network_body.observation_encoder.processors.1.conv_layers.0.weight f4 [16, 3, 8, 8]
00000000: dd22 023c 41ed fb3c e991 25bd e610 523d
00000010: c9e8 8e3d 84ee 833d 201a 64bd c340 c5bc
00000020: ddc5 8e3c 3fef bf3c f2e4 81bd 4698 6f3d
00000030: 9752 91bd d1c3 99bd 458a a5bc 88dd ebbc
00000040: 6c88 753d bf49 a83b 7205 31bd b20c 453d
00000050: 307f 913c 693f b33c f216 6ebd 3658 8b3c
00000060: b69e 263d 051b 05bd ff50 62bd 64be a2bc
00000070: ffc2 0dbb 1407 8a3d 2c9f 9cbc 7c5d 82bd
00000080: 6760 5fbd bcd9 513c a104 a83c 8a7b 84bd
00000090: 4895 6fbd 9104 52bd e4c1 81bd 0b32 0c3d
000000a0: 04bd 2abd 3a4b fe3b 9743 973c 0d26 a9bb
000000b0: 3dde ce3c f9d7 4a3d 1dbb 793d 4609 f4bc
000000c0: 5de0 61bd 2155 953d 10f4 8c3c 147b 0ebd
000000d0: 4eed 64bd c187 29bd 1122 b23d 8848 3dbd
000000e0: f38d 1ebd fcd1 c33b d336 95bd 0709 c7bc
000000f0: ac1c 89bd cc39 023d 23ff 6bbd d4ff a1bc
00000100: bfa7 40bd 5847 973d 053f a03d 945b b8bb
00000110: 1f1e 8f3c b7d4 433d ca3c 66bd 0582 923c
00000120: 6f4c 373d 664a 14bc 65b1 79bd 08c6 3d3b
00000130: dd2b 21bd 49b1 64bd b697 483d 7b48 65bc
00000140: 650e 733d 547a 0bbd c811 663d 2229 f13c
00000150: 5221 613c 5042 593c fab7 6f3d 560d aabc
00000160: c4d0 86bc 5aa9 3b3d ba67 8fbd 60d7 89bd
00000170: 5caa a13c 7d56 883c 1d6e 0e3c 2f42 c63c
00000180: 0b84 bbbc 5fca 873d d9b4 c63c d5d0 043c
00000190: 624a 113c e664 2f3c ff32 61bd cbdb 0ebd
000001a0: ccce d5bc 487c 09bd 8940 e5bc 7b6a e83c
000001b0: 7032 40bd db8b 213c d8c5 6fbb 1e1c 11bd
000001c0: fe63 91bd 2981 bc3c 2396 0bbd 1d57 093d
000001d0: a4f4 bc3c a73c 913d 7c8c 9a3d a565 823d
000001e0: 6fef 263d 10a3 a83d 7414 21bc 4df9 98bd
000001f0: 398d b5bc 06cc ac3c 6495 5abc 7a96 42bd
00000200: 1a50 033b 2e33 6f3c 2455 263d 7204 0c3d
00000210: 24bb cbbb 3117 55bd a44c 1c3d 1fec 46bd
00000220: 00e8 92bc da04 8d3d 2a47 fbbc fe85 86bc
00000230: 99c3 4fbd 04ea bdbc 8b49 783d 2ac3 0bbd
00000240: 64c6 773d c5f4 19bd c27f 25bd de35 48bc
00000250: 3985 f03c 5eb2 a3bc c877 d03c d41c c13b
00000260: a4b8 393d dc49 90bd 83b6 f8bc a74a b4bc
00000270: 538d 3b3d 5bc4 bfbc c9a3 7abc a48b 37bd
00000280: 1372 003c 4b7a 82bd e822 14bd b0fc 82bc
00000290: 2eac 8bbc e525 3ebd 6dd8 f13c a247 213d
000002a0: 312b 1dbd bf4e 453c 3374 16bd a2b9 343d
000002b0: 7656 49bc 4927 2fbd dcca 893d 378b 523c
000002c0: bb68 90bd 2e3c 073d c021 d8bc 88c5 e83a
000002d0: 0c08 0ebc 0bd2 6b3d 33c8 bfbc 725c b93c
000002e0: 2d1a f1ba 5f83 5bbc 1128 9b3b 7e46 143d
000002f0: 656a 5bbd 02b1 853d 8360 3f3d 0c43 723c
00000300: 2c86 123c 2137 2e3d 171d ccbc 13fc b5bd
00000310: ae82 6c3c 86e6 123d f0f5 b7bc bf8f eabc
00000320: ca9b 0b3d 41ab a1ba 54fb 0d3c 4fd8 9dbd
00000330: c7d0 b4bd 8a37 cdbc 5f0f a5bd 0819 adbd
00000340: 284b 80bd 1f48 41bd 7a77 0ebc b114 f0bc
00000350: 3e9f b03c c646 dc3c f387 3ebd 98f4 66bd
00000360: 9a1a b8bd e732 a9bd 629c 82bd 2951 57bc
00000370: 8e2c b63c 33d9 e03c 33e7 513d b6c7 c1bd
00000380: 1662 d13b 83de 89bc 060e 23bc 6e4a f93c
00000390: ac95 91bd 0cd9 6ebd 2c32 adbd d788 11bd
000003a0: 4865 fabc 33d9 eb3c 9d6d 59bd 797e 6dbb
000003b0: f133 64bd ea22 33bb a1f5 bfbc 6366 78bd
000003c0: 98b4 82bd e691 d2bc 1e0f 83bd 4b5e 4fba
000003d0: c158 a53b d3dd a13b ee06 94bc 24b3 4bbd
000003e0: 0573 ce3b 1490 6dbc 0f16 13bd 89be 453c
000003f0: 2004 3dbd f1df 7d3b 6fc2 33bd 36d5 dfbc
0.007942882 0.03075278 -0.040422354 0.051285647 0.06977994 0.064419776 -0.055688977 -0.024078732
0.017428333 0.023429511 -0.06342496 0.05849483 -0.07095831 -0.07508052 -0.020207534 -0.028792158
0.059944555 0.0051357443 -0.043218084 0.04810781 0.017760843 0.021880822 -0.05812735 0.017009836
0.040678702 -0.03249647 -0.055253025 -0.019866176 -0.002163112 0.06739631 -0.019118868 -0.06365487
-0.054535296 0.01280826 0.02051002 -0.06468876 -0.058491975 -0.051273886 -0.0633581 0.034227412
-0.041684166 0.0077604325 0.018464847 -0.0051620067 0.025252456 0.049522374 0.06096946 -0.029789578
-0.05514561 0.07291628 0.017206222 -0.034785345 -0.055890374 -0.04138923 0.08697904 -0.04621175
-0.038709592 0.00597596 -0.072858475 -0.024296297 -0.06694922 0.0317934 -0.057616364 -0.019775309
-0.047034975 0.073866546 0.0782452 -0.0056261513 0.017470418 0.047810283 -0.056210317 0.017884264
0.044750627 -0.009050941 -0.060960192 0.0028957147 -0.039348472 -0.055833135 0.048972808 -0.0139943315
0.0593399 -0.034052208 0.0561693 0.029438559 0.013740854 0.013260439 0.058525063 -0.020758312
-0.01645697 0.045815803 -0.07002206 -0.06730533 0.019734554 0.016642803 0.008693245 0.02420148
-0.022890111 0.06630396 0.024256157 0.00810643 0.008867832 0.010705208 -0.054980274 -0.03487758
-0.026099585 -0.03356579 -0.027984874 0.028371086 -0.0469231 0.009860004 -0.003658643 -0.035427205
-0.0709915 0.023010807 -0.03407873 0.033530343 0.023065872 0.07091647 0.075463265 0.063670434
0.040755685 0.08234227 -0.009831537 -0.07469425 -0.022162067 0.02109338 -0.013341282 -0.047506787
0.0020036758 0.0145996045 0.04060854 0.034183927 -0.0062173773 -0.05202407 0.038159028 -0.048565026
-0.017932892 0.06885691 -0.030673582 -0.016421314 -0.050723646 -0.023182876 0.06061701 -0.03412167
0.060491934 -0.037586946 -0.040405042 -0.012219874 0.0293604 -0.019982513 0.025447741 0.005893329
0.045342103 -0.070453376 -0.030360466 -0.022008253 0.045789074 -0.02340906 -0.0152978385 -0.044810906
0.007839697 -0.06370982 -0.0361661 -0.015989631 -0.017049875 -0.046422858 0.029522145 0.039374955
-0.03837127 0.0120427 -0.03673191 0.044122346 -0.01228868 -0.042762075 0.067281455 0.012850574
-0.07051226 0.033016376 -0.02638328 0.0017759064 -0.008668911 0.05757336 -0.023410892 0.02262709
-0.0018394642 -0.0133980205 0.004735001 0.03620004 -0.053568263 0.06527902 0.0467229 0.014786493
0.008943122 0.042533044 -0.024916215 -0.0888597 0.014435453 0.035864376 -0.02245614 -0.028632997
0.03408412 -0.0012334363 0.008665878 -0.07707273 -0.088288836 -0.025050897 -0.080595724 -0.0845204
-0.06264335 -0.04718792 -0.008695478 -0.029306741 0.021560308 0.026889216 -0.04651637 -0.056385607
-0.08989449 -0.08261662 -0.06377484 -0.013141909 0.022238042 0.027447319 0.05124588 -0.0946192
0.0063898666 -0.016829735 -0.009952074 0.030430999 -0.07108626 -0.05831246 -0.08456835 -0.03553089
-0.030565873 0.028790092 -0.05308305 -0.0036238714 -0.055713598 -0.0027334043 -0.023432555 -0.06064452
-0.06382102 -0.025704335 -0.06399368 -0.0007910474 0.0050459807 0.0049397736 -0.01806971 -0.04973139
0.0063003325 -0.014499683 -0.03590971 0.012069353 -0.046146512 0.0038738216 -0.0438866 -0.027323347

network_body.observation_encoder.processors.1.conv_layers.0.bias f4 [16]
00000000: e076 6cbd ca0a 8cbd c89f ccbd 85bb babb
00000010: c125 9fbd ea9f 55bd 8f01 babc 134b 2bbd
00000020: 8109 98bd 53b9 9fbd 7ed9 e63c 72bc 0abc
00000030: 37d8 91bd 7239 99bd 0e78 0ebc 5fe1 86bd
-0.057730556 -0.06837995 -0.09991413 -0.0056986236 -0.07770873 -0.05215446 -0.022705821 -0.041819643
-0.07423688 -0.0779902 0.02817988 -0.00846778 -0.07121318 -0.0748166 -0.008695615 -0.06585955

network_body.observation_encoder.processors.1.conv_layers.2.weight f4 [32, 16, 4, 4]
00000000: c5db d1bb a474 04bd bb1c c7bd 8bae 6d3c
00000010: 7bcc b2bd 03c7 21bc d124 493c ab20 85bd
00000020: 77f0 86bd 92c7 a6bc 6c9e 08bd 3572 36bd
00000030: 9202 30bd f5e7 7bbc df0a 2cbd f13a 5fbd
00000040: 61e0 423d 76fd 5cbc d6a9 b33d 5888 913d
00000050: b7a2 2d3d 147e a73c a6b9 a03d 15c3 2c3c
00000060: 6028 19bc 16fc a23a d2e5 623d a628 553d
00000070: a86a 063d 7833 cebc 2f46 323d 155b 9a3d
00000080: 037a 0c3b f36c 3fbd f276 afbc 6286 8bbd
00000090: d035 1a3d 735d 01bd 7f12 66bc 1786 8d3d
000000a0: 7cb2 8b3d ef26 d6bb b6e1 57bc 7dfa 163d
000000b0: c086 41bd 6819 0d3d ce8e 8a3c c9e2 b7bc
000000c0: 898a 10bd d1fb 6abc 7ef4 1d3c b1cc 0f3d
000000d0: 1ef5 4a3d ab4d bcbc da3e 93bd 7e1f 40bd
000000e0: fb52 68bd cd22 68bd 8493 afbd 5eee 703c
000000f0: e554 e0bc fbe6 363d fd47 323d b13b 39bd
00000100: bae8 ecbc f020 923d 56ec 903d a4b4 bbbc
00000110: 6dcd c23d 945b 6dbc 7aea 2e3d 01e7 753d
00000120: 2581 0bbd fe7c b5bc 2a14 8d3d 1d1c 423d
00000130: 0bf5 253d c462 7a3b 0287 703d 5c2c b23d
00000140: ca4e 8d3b ada8 413c fad2 353c 56b5 093d
00000150: 7703 b1bc edd2 533d c656 8c3d 9377 15bc
00000160: e8d5 843d 9206 1e3d 259e 573d 8ec5 ba3d
00000170: cd24 0f3d 5a98 07bc 6155 4d3d 02c5 be3d
00000180: 10f0 473d ac7d 61ba a196 92bc 57bc 673d
00000190: af8b e63b 37f9 673d a5df a03d bbe4 b6bb
000001a0: 5421 f93c cfb8 673d 4579 ca38 db08 3d3c
000001b0: c108 45bd ef6b 303d 5f39 fb3a 6898 c63c
000001c0: 037c 973c 77b4 d6bc bb33 25bd 0c50 81bc
000001d0: b8ff 553d c784 293d b53c d73c 1994 b4ba
000001e0: 6e6d c5bc 5e52 c83c 6618 16bd c9d2 3abd
000001f0: 3e59 c6ba ca8e 1d3d 0d8c 803d 7948 02bd
00000200: f1e6 5dbd a08e 2b3c cadc 1bbd 7a24 aebd
00000210: 4610 96bd 9290 15bd 0520 bbbb ad46 e6bc
00000220: 21aa a4bd 360b b3bc 0a0a c83c bd2e 07bd
00000230: ec31 953d e162 cc3b 9b70 033c 2ba3 8fbd
00000240: 56dc 37bd ad0f 4b3d 1cc7 22bd ccc5 13bd
00000250: e3c8 a83c 8d37 813d b6e1 883d 1df3 cebb
00000260: c67c 1bbd c018 693d 054e f43c d457 1ebc
00000270: 1b95 16bd fd75 abbc 6749 a23d 2ad8 69bc
00000280: abdd 313d 1956 8b3d 9980 6d3d 9668 423a
00000290: 1e72 663d bf95 40bd a26f 66bd ee4e 383c
000002a0: 9f80 26bc 2aac e93c 8f4e 34bd 5275 a33d
000002b0: 0b90 b4bc c790 35bb c15d bfbc a021 043d
000002c0: 4f09 e43c ee6f 0dbb ad35 d4bc 1834 fabc
000002d0: e5cb f5bb 7063 21bc 74e4 3bbb 2d6d 11bd
000002e0: 2d1e 91bd c15b 4dbd 3dae 92bb 1d19 95bb
000002f0: 14b0 233c fe36 17bd af36 863d 1db4 9ebc
00000300: ef74 273c 77e0 613d 2d2f c03c 6eca 663c
00000310: 368e 4a3d d900 483d 0db1 233d d17d b5bb
00000320: ee76 803d d3ff 96bc 5c09 9d3d cce0 823c
00000330: 60e4 9abd 6c27 5abc dc08 44bc ef7b a1bb
00000340: 41af 133d 9815 4a3d 56bd 163d 1c8f 3abb
00000350: 0ccd d7bc c24f 913d 7f31 d93c dfcf 24bd
00000360: 585a e5bc 180e 353d 03f9 76bd 8e57 37bd
00000370: 6fec 513c 3249 35bc ca3a e6bc e5f4 0abd
00000380: 5d35 1b3d 7535 bf3a 1b06 be3c bf56 de3d
00000390: 9e9b e93d 3fb8 903d 0a75 bd3d f1a7 ecbc
000003a0: 13a3 3dbc 7659 acbc 9d9f 21bd cdec a13d
000003b0: 170f c0bb 58c4 633c 5a48 39bd f38e 16bd
000003c0: 534c a53c c636 74bc c9e7 993d 2e33 9e3d
000003d0: ad2b 003d 781a 443d b311 643b acc2 c2bc
000003e0: d2d9 f6bd fb99 113d cfaf 73bd ed31 bc3c
000003f0: 279f d43c fbd9 fb3c 452f 5ebd 2669 983d
-0.0064043724 -0.0323378 -0.09722277 0.014506946 -0.08730408 -0.009874108 0.012276844 -0.065003715
-0.06588834 -0.020358834 -0.033354208 -0.04454251 -0.0429712 -0.015375127 -0.042002555 -0.05449957
0.047577266 -0.013488164 0.08772628 0.07106084 0.042391505 0.02044586 0.0784791 0.010544558
-0.009348005 0.0012434747 0.055394955 0.05204072 0.03281656 -0.025171027 0.043523964 0.07536904
0.002143503 -0.04673476 -0.021419022 -0.06812741 0.037648976 -0.03158326 -0.014042496 0.06910341
0.068211526 -0.006535403 -0.013176372 0.036859978 -0.04724765 0.034448057 0.016913798 -0.022447007
-0.035288367 -0.014342264 0.009640811 0.03510732 0.04955017 -0.022986254 -0.07189722 -0.046905033
-0.05671976 -0.056673814 -0.08573058 0.014705269 -0.02738423 0.044653874 0.043525685 -0.04522294
-0.028919566 0.071351886 0.070763275 -0.022913285 0.09511838 -0.014487166 0.042704083 0.060034756
-0.03405871 -0.022154327 0.068886116 0.047390092 0.040516894 0.0038205842 0.058722503 0.08699867
0.004312371 0.011820001 0.011097664 0.0336202 -0.021608097 0.051714826 0.06852488 -0.009122747
0.06486112 0.038580485 0.052641053 0.09119712 0.034947205 -0.00827607 0.05013025 0.0931492
0.048812926 -0.00086017954 -0.017894091 0.0565761 0.0070356946 0.056634154 0.07855157 -0.005581466
0.0304114 0.05657273 9.654699e-05 0.011537756 -0.04810405 0.043071683 0.0019166878 0.024242595
0.01849175 -0.0262091 -0.040332537 -0.01578524 0.052245826 0.041386392 0.026274065 -0.0013777047
-0.024100032 0.024453338 -0.036644362 -0.045611177 -0.0015132797 0.038466252 0.062767126 -0.031807397
-0.05417532 0.010471016 -0.038052358 -0.08503051 -0.07327323 -0.036514826 -0.005710604 -0.028109873
-0.08040262 -0.021855932 0.02441885 -0.033003557 0.072849125 0.006237373 0.008022453 -0.07013544
-0.044887863 0.049575496 -0.039740667 -0.036077306 0.020603603 0.063094236 0.06683676 -0.0063156025
-0.03796079 0.05690837 0.029822359 -0.009664495 -0.03676329 -0.020930285 0.07924157 -0.014272729
0.04342429 0.06803531 0.05798397 0.0007416097 0.056261174 -0.04701781 -0.056258805 0.011249287
-0.010162502 0.028524477 -0.04402023 0.079813614 -0.022041341 -0.0027704702 -0.023360135 0.03225863
0.02783647 -0.0021581608 -0.0259045 -0.030542418 -0.0075011128 -0.009850368 -0.0028670104 -0.03550451
-0.07085834 -0.05013633 -0.004476337 -0.004550113 0.009990711 -0.03691768 0.06553399 -0.019372994
0.01022075 0.055145707 0.023459995 0.014086349 0.04945203 0.048828933 0.03996377 -0.00553868
0.06272684 -0.018432533 0.07667801 0.015976332 -0.0756309 -0.013315063 -0.011965003 -0.004928104
0.036055807 0.049337 0.03680166 -0.0028466647 -0.026342891 0.07095291 0.02651286 -0.040237304
-0.02799718 0.044202894 -0.06029607 -0.044761233 0.012812718 -0.011064814 -0.028104205 -0.033924956
0.037892688 0.0014588075 0.02319627 0.10856389 0.11406635 0.07066392 0.09250839 -0.028888674
-0.011574524 -0.021038752 -0.03945886 0.07906494 -0.005861174 0.0139017925 -0.045235015 -0.03675742
0.020177996 -0.014905637 0.07514913 0.077246055 0.031291652 0.047876805 0.0034800589 -0.023774467
-0.12053265 0.035547238 -0.059493836 0.022973025 0.025954796 0.03074359 -0.0542443 0.074419305

network_body.observation_encoder.processors.1.conv_layers.2.bias f4 [32]
00000000: 21f4 5bbd cf4b 9abc 4d2b febb 4b4a 0abd
00000010: 595b 9abc c26d 51ba fc47 e73c d73d debd
00000020: 26c2 c5bb 790d ffbd c18e c3bd 65ab b1bc
00000030: 1164 ddbc 01cb 003d 9a9d a6bd a1af 30bd
00000040: 9d6c bfbd f4d7 17bd bc3f f9bd 9d74 353c
00000050: a8c7 33be 7b29 f9bd d364 46bd fc14 85bd
00000060: b50e abbd 8912 3dbd fe3e 553d 3221 93bd
00000070: 8951 87bd b9b3 01bd 9d62 aabd 97b1 773d
-0.053699616 -0.018834976 -0.0077566267 -0.033762258 -0.018842386 -0.00079890725 0.028232567 -0.10851639
-0.006035107 -0.124537416 -0.095487125 -0.021688173 -0.027025254 0.0314436 -0.08135529 -0.043136243
-0.09346888 -0.037071183 -0.121703595 0.011075166 -0.17556632 -0.12166115 -0.048435997 -0.06498143
-0.083524145 -0.046160255 0.052062027 -0.07184066 -0.066073485 -0.031665538 -0.0831959 0.060472097

network_body.observation_encoder.processors.1.dense.0.weight f4 [20, 576]
00000000: ccc9 1a3c 2aae 44bd 9bb0 863d 58be a3bd
00000010: 4192 d13d 0d18 b03d 281f 773c cecd 6939
00000020: 7d36 b03a a884 5abd dea6 cf3d 3fe8 5fbd
00000030: 7c35 863d a20d f23c 9c8a bd3d 69e7 9abd
00000040: 16ff 74ba a72d 88bc d63b 98bd 7ccf ddbc
00000050: 13e4 7dbb 89d9 39bd df78 bf3d d106 1ebd
00000060: bba1 eebd 9c58 5fbd 4017 4b3b d474 89bd
00000070: 0085 4cbd 77a9 3f3c fe88 96bc 55cd 00be
00000080: fdf0 2cbd c525 10bd f54a 933b d722 dfbc
00000090: 2e6a c1bd 18e4 ccbd 01dc 84bd 82bb bfbd
000000a0: d8c5 2ebe eb3b 633a 0b18 b2bc 5086 38bb
000000b0: babd 3ebd 0d6d 7abd c854 e73c bb69 02bd
000000c0: c931 37bc ddf0 35be 3892 8cbc 92b3 213e
000000d0: fc2c c63c ed2f 653d 5578 71bd ae09 bc3c
000000e0: 44ac f13b 0122 9ebd 61e9 94bd 201d b8bc
000000f0: 13f9 eabc 6a5f 42bc 225e c93b d7ef 73bd
00000100: f14e 96bc 08fd f4bd 9561 b33d c898 ca3c
00000110: 8c94 9e3d 0ecb 8f3b 88dd b7bd 9325 62bd
00000120: a4b2 a4bd 2f35 e5bd dc25 c0bc c73c 2b3d
00000130: 6c13 983c b82d febd f533 c43c 3335 8dbc
00000140: 008c bbbd f7b0 53bc 9a38 c63d fe9f fdbd
00000150: 1225 67bd 49da 23bd f814 fc3c 5c44 ff3d
00000160: 0bc3 1a3d 059d 44bd ac3f d23d 8cd9 37bc
00000170: c060 d43c 42f5 333c 5dd9 f4bc 2500 ccbc
00000180: 5d99 723c 743b 5c3d 928a e23d fce2 923d
00000190: d58c bfbb a8cd 82bd dab6 c0bc 6000 80bd
000001a0: f199 f03c e8f9 40bd dddc c73c b073 4bbd
000001b0: 8213 64bd a193 3cbd 7b3d ae3d c94a 8cbd
000001c0: 6979 d93d 3f66 ecbb 9ac6 12bd 73c7 0a3d
000001d0: 0d6b 0bbe 3949 ef3a 3dce 073d 8608 33be
000001e0: dc6d aabd 4de5 afbb 2b87 a33c 4042 c33c
000001f0: 3199 a7bd 9768 6dbc aa55 a23d 0b0a aebc
00000200: b3cf 493d e9d1 32bd 0445 513e d022 823c
00000210: 4e78 933b 20c2 9f3d d62f aebd e2ce cbbc
00000220: eb56 47bc 6d03 093e 4edb 843d 2439 10bd
00000230: f3d5 9e3d 86e5 b3b8 6a64 903c a0e3 033c
00000240: a698 c4bd f108 b3bd 0b5f b3bd 9a98 8ebd
00000250: fe6f 17be 7237 6abd 0b55 69bd c673 a0bb
00000260: 8bcb f9bd 67bb 103d 50ea 62be 43fe 5abd
00000270: 3ecf b4bc 5714 01be 5dac 6bbd d77c d9bd
00000280: 1677 bebd 5923 b4bd 9f7e 9cbc e15b 62bd
00000290: 4732 a9bd 534d 8dbd 43f2 d3bd 262a 5c3c
000002a0: 49c9 99bb 965c d33d 8a76 b9bc ff50 8b3d
000002b0: 81b6 43bc 56a2 3dbc a027 ef3d 57ec 12bd
000002c0: 79ed 47bd a1c3 07bd f020 883d a232 a6bd
000002d0: 0ca7 4abd 26ee 833d 273d 773d 35dc acbb
000002e0: f733 23bd 472d 2ebc 91e9 313c baaa c13d
000002f0: a424 3d3c c77b 87bd 9557 b1bc 9ac8 91bd
00000300: e654 99bd 7c32 b4bc 1cd5 753d d376 c1bd
00000310: 1c62 323c 3d7e 103d bbf5 52bd 0a70 4bbd
00000320: 77d0 13be 2e23 9a3d b923 0fbc 9a39 09bd
00000330: 7a3e 8d3c b665 fd3b 6451 233d ae32 39bd
00000340: ce7e d6bd dfc9 95bc 0f9e 563d c104 4d3d
00000350: d072 973b 7f6f d5bc 7190 5abc ea42 49bd
00000360: 5a6d 76bb 7c39 273d 9d10 1abd ad5f 83bd
00000370: 3c96 9b3d cc5d 45bd 490c 59bc 3afd aebd
00000380: d895 88bc 11ad 2cbd 66e7 cfbc 17d1 6fbd
00000390: b075 933c f57d 14bd ea18 8c3c 4207 7c3c
000003a0: 5815 0cbc bbbe 023e 8474 fcbc 749b f8bc
000003b0: a7f6 dcbc ef26 dabd 1a11 1e3d bd56 ef3c
000003c0: ac03 923a a31b c0bd 6042 95bc bf74 0abc
000003d0: 3e79 eb3d 252f 6abd 4419 c6bb 673f 2e3d
000003e0: 3069 bdbb 6b3c 8bbd 9c67 93bd 9596 c4bd
000003f0: 8560 ad3c 8083 933c dbda 1dbd 3fb4 52bb
0.009447526 -0.04801766 0.065766536 -0.079952896 0.10232974 0.08598337 0.015083112 0.0002229728
0.0013443973 -0.053349167 0.10139249 -0.054664847 0.0655317 0.029547516 0.09254953 -0.07563669
-0.0009345872 -0.016623331 -0.07433288 -0.027076475 -0.003874068 -0.045373473 0.09349226 -0.03858072
-0.116519414 -0.054527864 0.00309892 -0.06711736 -0.049931526 0.011698118 -0.01837587 -0.12578328
-0.04222201 -0.03519227 0.0044950196 -0.027238293 -0.0944408 -0.10004443 -0.06487275 -0.09361936
-0.17067659 0.0008668291 -0.02173998 -0.0028156228 -0.046567656 -0.061139155 0.028238669 -0.031839114
-0.011181303 -0.17767663 -0.017159566 0.15791157 0.024191372 0.05595391 -0.05895265 0.022953834
0.007375272 -0.077213295 -0.07271076 -0.022474825 -0.028683221 -0.011863569 0.0061452547 -0.0595549
-0.01834819 -0.119623244 0.08758847 0.024731055 0.07743177 0.0043882197 -0.089778006 -0.055211615
-0.080418855 -0.111917846 -0.023455553 0.04180601 0.018563949 -0.12411064 0.023950556 -0.017237281
-0.09157562 -0.01292061 0.09678765 -0.12384032 -0.056431837 -0.040003095 0.030771717 0.124642104
0.037783664 -0.048001308 0.10266051 -0.011221301 0.02592504 0.010983767 -0.029888803 -0.024902413
0.0148070725 0.053767636 0.110615864 0.071722 -0.005845646 -0.06386882 -0.02352469 -0.062500715
0.02937028 -0.04711333 0.024397308 -0.049670875 -0.055682667 -0.046039227 0.0850782 -0.06850202
0.1061886 -0.007214337 -0.035833932 0.033881616 -0.13615055 0.0018256075 0.03315567 -0.1748372
-0.08321735 -0.005367911 0.019961914 0.023835301 -0.08183516 -0.014490268 0.079264954 -0.021245023
0.049270343 -0.043657217 0.20436484 0.01588574 0.0045004254 0.07800698 -0.08505218 -0.024878923
-0.012166719 0.13380213 0.064871415 -0.035210744 0.07755651 -8.578137e-05 0.017626006 0.0080498755
-0.09599428 -0.0874194 -0.087583624 -0.069627 -0.14788815 -0.057181783 -0.05696587 -0.004896614
-0.12197026 0.03533497 -0.22159696 -0.05346514 -0.022071477 -0.12605415 -0.057537425 -0.106195144
-0.093000576 -0.087958045 -0.019103346 -0.055263404 -0.08261543 -0.06899514 -0.10348942 0.013437783
-0.0046931845 0.10320394 -0.022639532 0.06802558 -0.011945368 -0.011574348 0.1167748 -0.035869922
-0.048810456 -0.03314555 0.06646907 -0.08115126 -0.049475715 0.064419076 0.060361054 -0.005275274
-0.03984448 -0.010630912 0.010858909 0.09456392 0.01154438 -0.066154055 -0.021648208 -0.0711834
-0.07486896 -0.02199673 0.06001769 -0.09446492 0.010887649 0.03527664 -0.051503878 -0.049667396
-0.14434992 0.07526241 -0.008736544 -0.0335022 0.017241705 0.007733072 0.039872542 -0.045214348
-0.10473405 -0.018284736 0.05239683 0.05005336 0.004621841 -0.026054142 -0.013340102 -0.04913608
-0.00376018 0.040826306 -0.0376135 -0.06414733 0.07597014 -0.048185155 -0.013247558 -0.08544393
-0.016673014 -0.042157236 -0.025378894 -0.058549013 0.018000454 -0.036252934 0.017101724 0.01538259
-0.008550011 0.1276807 -0.030817278 -0.030347563 -0.026973082 -0.10651957 0.038590528 0.029216165
0.001114001 -0.09380271 -0.018220127 -0.008450686 0.114977345 -0.057173867 -0.0060454924 0.042540934
-0.0057803616 -0.06798633 -0.07197496 -0.09599034 0.021164188 0.01800704 -0.038538795 -0.0032150892

network_body.observation_encoder.processors.1.dense.0.bias f4 [20]
00000000: 8f3c 6ebb 9398 babd 2f3b c4bc 1f12 603d
00000010: 5dd4 40bd fd13 9a3c a233 663a a87f 323a
00000020: 94f9 1abe 2157 12bc 3a08 ffbc 4c92 97bd
00000030: 8035 6dbb 34a2 0d3c 6577 65bd d94c 41bd
00000040: c1d1 f1bc d84c 2f3d 2931 223d da51 c0ba
-0.0036352014 -0.091111325 -0.023954002 0.05470478 -0.047077525 0.01880836 0.00087814976 0.00068091834
-0.15134269 -0.008931906 -0.031131852 -0.07400951 -0.0036195219 0.008644629 -0.056022067 -0.04719243
-0.029518964 0.042797893 0.039597664 -0.0014672831

network_body.observation_encoder.processors.2.conv_layers.0.weight f4 [16, 3, 8, 8]
00000000: ceb6 16bc bb38 21bd 4965 64bd df96 103d
00000010: b7de 72bc 0c87 57bd 7b30 853b 8911 bbbc
00000020: fc7e 7abd 0010 0d3c 5658 a1bc 4888 7ebd
00000030: acb6 89bd 805e f1bc 5120 51bc 253d 2c3d
00000040: 02f8 7abb 2555 2dbd e0a7 653d c0d9 f4bc
00000050: 50bf 2b3d 34f4 b1bb ac85 343c aeb2 4cbd
00000060: ae7a 9c3c 5c79 d2bc 24da 61bc 8f4d f3bc
00000070: fe1d 32bd 2e25 843c 2a71 6a3d bb73 693d
00000080: ad3a 7bba 11ff 6b3a c97e c1bc 8e24 2bbd
00000090: c981 13bd d684 4e3d f797 e5bc fb96 62bd
000000a0: 8cdc 423d 6310 86bd a9df 95bc 1d23 013d
000000b0: 6b4a 91bc bdaf d2bc add0 dfbc 2a84 7f3d
000000c0: 690d 21bd 406e 77bd daba c5bc 98ba ffbb
000000d0: 750d 7fbc b513 7dbd 1e7d 72bd 9deb 47bd
000000e0: 32a9 353b e733 703b c648 8cbd 74cb 13bc
000000f0: 9d89 633d 21c2 1b3c 0499 99bd 01e8 463d
00000100: 2f02 693d b882 f4bc 3ff6 88bc c758 c83c
00000110: f143 08bc 08fc 3a3c 10fd 8b3d 80e4 4b3d
00000120: c9bd 99bd becd f23c a038 503d 8761 87bd
00000130: 8ef0 413d 2ec2 4e3d 0326 ed3c f829 563c
00000140: 00d5 05bd b0ba 4fbd 167c cabc 4e56 e83c
00000150: 86f5 313d 14c8 4dbd 76fc 803d cb13 c2bb
00000160: 2331 163d 0908 0bbd 1751 4cbd 86bc 53bd
00000170: b9f6 6a3c c1b2 8abd 39d8 0b3d ca51 01bd
00000180: 53fd 86bd 03d6 613d 9ed4 abbd 7d63 783d
00000190: e7e0 d5bb 9a02 d3bc bf46 c73c 3f66 88bc
000001a0: 2b28 8a3b 1a67 8cbc c7a1 8bbd c84f 08bd
000001b0: a316 1e3d 0731 29bd 6098 4a3d b746 acbc
000001c0: 3db2 813c 2418 bcbd ad72 853c 585c 7b3d
000001d0: e050 9abc fe71 e9bc 7951 b43c b9f8 a03c
000001e0: 2f0e a93b ed6e dcbc 13df 7d3c efca 61bd
000001f0: a5ee 67bc 36ec b03c 8c8a e93b 9fc6 94bd
00000200: ca58 0cbd 26da 91bd bbe3 9e3b b83a 87bc
00000210: 9f4f 843c 31b9 02bc 3034 cabc b313 e2bc
00000220: 36a0 2dbc 8038 8d3c 7c37 30bd e17f eebc
00000230: 8581 1a3c f29f 7a3d f87c 92bd e4d0 7bbd
00000240: 23dc e0bc 0709 05bd 8da2 423d bcf6 c03b
00000250: 2df7 bfbc e070 7b3d a77b 71bc 2f64 65bd
00000260: 6d71 493c abb2 c4bc 3fb6 55bc 35a7 7bbd
00000270: eaa4 633d 3fed 8bbb 779e 64bc f583 203d
00000280: 1dae 23bc 958e 9abb e90a 20bd bc40 c7bc
00000290: 9e3e 87bd b132 d0bc 71ad 71bd f824 89bd
000002a0: c3d3 3dbd 1d6a ce3c 8ba8 7cbc 36f4 94ba
000002b0: 37f5 8ebd a1d8 653c 9f7f 4abd 1790 023d
000002c0: cb5e 6e3c e5d0 98bb 25f4 61bc 21e5 c03c
000002d0: 5aaf 503d ba8a 873d 36b8 3fbd 2619 04bd
000002e0: c311 d2bc cfba 243d 1f7f 3fbd ab4b c83c
000002f0: 9af7 43bc 31fc 413d 284b 18bc 99be 7b3d
00000300: 7aec 46bd 94c2 a0bd 1499 a6bc 4046 8cbd
00000310: a393 033d 48ad 9b3b 7c44 a1bd d5ef 143d
00000320: 1ec3 bcbd 7fd3 87bd 44be 553d 09ba 00bd
00000330: 20d8 85bb f10a 38bd d3e2 493d d0f6 a3bd
00000340: ac79 2cbd 200e 80bd 42c7 15bc f35c 8abd
00000350: 2bdd 35bd e36d 82bd 149c 31bd d62e 0ebd
00000360: f9cb 813c b892 163d 9d5c 4abc fc28 793c
00000370: 872c 763d 42cb 813c 3496 433d 353f f9bc
00000380: eca3 0cbc 02e5 08bd 7ee8 1d3d 66b7 8fbd
00000390: aab2 493c 0011 533d ef8a d6bc 2ba0 6ebc
000003a0: 92bc 893d d0e8 44bd dc97 c6bc 9389 7abd
000003b0: 0c54 84bd b338 023b 852f 8cbd aae3 8abb
000003c0: ebb1 963c 57cb b83a af20 f93c a711 5cbd
000003d0: f638 823d afa5 9d3d b2dc f93c ca26 cf3c
000003e0: 70ac 74bd 7f5d 4ebd ff39 5bbd cf19 603d
000003f0: f7fe 143d 1533 35bd 07f7 38bd 09d5 fbbc
-0.0091988575 -0.039360743 -0.055760656 0.035300132 -0.014823607 -0.052619025 0.004064617 -0.02283551
-0.061156258 0.008609772 -0.019695442 -0.062141687 -0.06724295 -0.029464006 -0.0127640525 0.0420505
-0.0038294797 -0.04231753 0.0560683 -0.029888988 0.041930497 -0.0054307226 0.011018198 -0.04997509
0.019101467 -0.025692634 -0.013784919 -0.029700069 -0.043485634 0.01613101 0.057236828 0.056995135
-0.00095836335 0.00090025464 -0.023620026 -0.04178291 -0.036012445 0.05041965 -0.028026564 -0.055319767
0.04757361 -0.06546094 -0.018295126 0.031527627 -0.01773568 -0.025718564 -0.027321184 0.0623819
-0.03931943 -0.060407877 -0.02413695 -0.007804226 -0.015567173 -0.061786372 -0.059201352 -0.048808683
0.0027719256 0.003665203 -0.06849818 -0.009020675 0.05555116 0.009506733 -0.074998885 0.0485611
0.056886848 -0.029847488 -0.016718982 0.024456395 -0.00831698 0.011412628 0.06835377 0.04977846
-0.07506902 0.029639121 0.05083525 -0.06610399 0.04734855 0.050478153 0.02894879 0.01307153
-0.032673836 -0.05071515 -0.024717372 0.028361466 0.04344704 -0.050239637 0.06298153 -0.0059227697
0.036667954 -0.03394321 -0.04988202 -0.05169346 0.01434105 -0.06772376 0.034141753 -0.03157214
-0.065912865 0.055135738 -0.08390163 0.060641754 -0.0065270546 -0.025758076 0.024325727 -0.016650317
0.004216214 -0.017139006 -0.06817966 -0.03327921 0.038595807 -0.04130652 0.049461722 -0.021029813
0.015832061 -0.09184292 0.016290033 0.061367363 -0.018837392 -0.028496739 0.022011505 0.01964985
0.0051591615 -0.026908362 0.01549508 -0.055125173 -0.014156018 0.02159701 0.007127112 -0.072644465
-0.034264363 -0.07121687 0.004848925 -0.016507491 0.016151248 -0.007978723 -0.024683088 -0.027597284
-0.010597279 0.017238855 -0.043021664 -0.029113712 0.009430294 0.061187692 -0.07152742 -0.06147851
-0.02744872 -0.032479312 0.0475183 0.005888788 -0.023433292 0.061386943 -0.014738954 -0.056003746
0.012295109 -0.024010977 -0.013043939 -0.061438758 0.055577196 -0.0042702253 -0.013953797 0.039188344
-0.009990242 -0.004716704 -0.039072905 -0.02432286 -0.0660374 -0.025414797 -0.059003297 -0.06696504
-0.04634453 0.025197083 -0.015421043 -0.0011364284 -0.06980365 0.014028699 -0.049438115 0.031875696
0.014548968 -0.004663574 -0.013791119 0.023546757 0.05094848 0.06618257 -0.046806537 -0.032250546
-0.025643235 0.040217217 -0.04675209 0.024450144 -0.011960888 0.04735965 -0.009295262 0.061461065
-0.048565365 -0.07849613 -0.020336665 -0.068493366 0.03212322 0.0047508813 -0.078743905 0.036361534
-0.09216903 -0.066321366 0.052183405 -0.031427417 -0.004084602 -0.04493231 0.049288582 -0.0800606
-0.042108223 -0.06252694 -0.009141745 -0.0675601 -0.044400375 -0.063686155 -0.04336174 -0.034712635
0.015844332 0.036761016 -0.012351182 0.015207525 0.06010106 0.015843991 0.047750667 -0.030425647
-0.008584004 -0.033421524 0.0385518 -0.07017402 0.012310663 0.051529884 -0.026189296 -0.014564554
0.0672542 -0.04807359 -0.024242334 -0.061166357 -0.06461343 0.001987022 -0.06845001 -0.0042385655
0.018395385 0.0014098686 0.030411093 -0.053727772 0.06358521 0.07697617 0.030500744 0.02528705
-0.05973476 -0.050382134 -0.053522106 0.054712113 0.036375966 -0.04423817 -0.04515746 -0.030741232

network_body.observation_encoder.processors.2.conv_layers.0.bias f4 [16]
00000000: f76a 98bc 4574 153d a5ce 513d e45b 0a3d
00000010: 8406 5d3b b7f0 cebc 4875 a6bd fdf9 ea3c
00000020: 311f 7fbd cd6a bcbc e996 653c 163c d13c
00000030: 8465 34bd eb43 95bd 2567 863a 36ad 183c
-0.018605692 0.036487836 0.051222462 0.03377904 0.0033725807 -0.025261266 -0.081278384 0.028683657
-0.062285606 -0.023000145 0.014013031 0.025541347 -0.044042125 -0.07288345 0.0010254128 0.00931864
